<net name="torch-jit-export" version="11">
<layers>
<layer id="2" name="left_eye_image" type="Parameter" version="opset1">
<data shape="1,3,60,60" element_type="f32"/>
<rt_info>
<attribute name="fused_names" version="0" value="left_eye_image"/>
</rt_info>
<output>
<port id="0" precision="FP32" names="left_eye_image">
<dim>1</dim>
<dim>3</dim>
<dim>60</dim>
<dim>60</dim>
<rt_info>
<attribute name="layout" version="0" layout="[N,C,H,W]"/>
</rt_info>
</port>
</output>
</layer>
<layer id="1" name="right_eye_image" type="Parameter" version="opset1">
<data shape="1,3,60,60" element_type="f32"/>
<rt_info>
<attribute name="fused_names" version="0" value="right_eye_image"/>
</rt_info>
<output>
<port id="0" precision="FP32" names="right_eye_image">
<dim>1</dim>
<dim>3</dim>
<dim>60</dim>
<dim>60</dim>
<rt_info>
<attribute name="layout" version="0" layout="[N,C,H,W]"/>
</rt_info>
</port>
</output>
</layer>
<layer id="0" name="head_pose_angles" type="Parameter" version="opset1">
<data shape="1,3" element_type="f32"/>
<rt_info>
<attribute name="fused_names" version="0" value="head_pose_angles"/>
</rt_info>
<output>
<port id="0" precision="FP32" names="head_pose_angles">
<dim>1</dim>
<dim>3</dim>
<rt_info>
<attribute name="layout" version="0" layout="[N,C]"/>
</rt_info>
</port>
</output>
</layer>
<layer id="3" name="Reshape_1310" type="Const" version="opset1">
<data element_type="f32" shape="1, 3, 1, 1" offset="0" size="12"/>
<output>
<port id="0" precision="FP32">
<dim>1</dim>
<dim>3</dim>
<dim>1</dim>
<dim>1</dim>
</port>
</output>
</layer>
<layer id="4" name="Subtract_1313" type="Subtract" version="opset1">
<data auto_broadcast="numpy"/>
<rt_info>
<attribute name="fused_names" version="0" value="92"/>
</rt_info>
<input>
<port id="0" precision="FP32">
<dim>1</dim>
<dim>3</dim>
<dim>60</dim>
<dim>60</dim>
</port>
<port id="1" precision="FP32">
<dim>1</dim>
<dim>3</dim>
<dim>1</dim>
<dim>1</dim>
</port>
</input>
<output>
<port id="2" precision="FP32">
<dim>1</dim>
<dim>3</dim>
<dim>60</dim>
<dim>60</dim>
</port>
</output>
</layer>
<layer id="5" name="Reshape_1304" type="Const" version="opset1">
<data element_type="f32" shape="1, 3, 1, 1" offset="12" size="12"/>
<output>
<port id="0" precision="FP32">
<dim>1</dim>
<dim>3</dim>
<dim>1</dim>
<dim>1</dim>
</port>
</output>
</layer>
<layer id="6" name="Multiply_1314" type="Multiply" version="opset1">
<data auto_broadcast="numpy"/>
<rt_info>
<attribute name="fused_names" version="0" value="92"/>
</rt_info>
<input>
<port id="0" precision="FP32">
<dim>1</dim>
<dim>3</dim>
<dim>60</dim>
<dim>60</dim>
</port>
<port id="1" precision="FP32">
<dim>1</dim>
<dim>3</dim>
<dim>1</dim>
<dim>1</dim>
</port>
</input>
<output>
<port id="2" precision="FP32">
<dim>1</dim>
<dim>3</dim>
<dim>60</dim>
<dim>60</dim>
</port>
</output>
</layer>
<layer id="7" name="Reshape_1307" type="Const" version="opset1">
<data element_type="f32" shape="1, 3, 1, 1" offset="24" size="12"/>
<output>
<port id="0" precision="FP32">
<dim>1</dim>
<dim>3</dim>
<dim>1</dim>
<dim>1</dim>
</port>
</output>
</layer>
<layer id="8" name="92" type="Add" version="opset1">
<data auto_broadcast="numpy"/>
<rt_info>
<attribute name="fused_names" version="0" value="92"/>
</rt_info>
<input>
<port id="0" precision="FP32">
<dim>1</dim>
<dim>3</dim>
<dim>60</dim>
<dim>60</dim>
</port>
<port id="1" precision="FP32">
<dim>1</dim>
<dim>3</dim>
<dim>1</dim>
<dim>1</dim>
</port>
</input>
<output>
<port id="2" precision="FP32" names="92">
<dim>1</dim>
<dim>3</dim>
<dim>60</dim>
<dim>60</dim>
</port>
</output>
</layer>
<layer id="9" name="8" type="Const" version="opset1">
<data element_type="f32" shape="32, 3, 3, 3" offset="36" size="3456"/>
<rt_info>
<attribute name="fused_names" version="0" value="8"/>
</rt_info>
<output>
<port id="0" precision="FP32" names="8">
<dim>32</dim>
<dim>3</dim>
<dim>3</dim>
<dim>3</dim>
</port>
</output>
</layer>
<layer id="10" name="Convolution_93" type="Convolution" version="opset1">
<data strides="1, 1" dilations="1, 1" pads_begin="1, 1" pads_end="1, 1" auto_pad="explicit"/>
<rt_info>
<attribute name="fused_names" version="0" value="Convolution_93"/>
</rt_info>
<input>
<port id="0" precision="FP32">
<dim>1</dim>
<dim>3</dim>
<dim>60</dim>
<dim>60</dim>
</port>
<port id="1" precision="FP32">
<dim>32</dim>
<dim>3</dim>
<dim>3</dim>
<dim>3</dim>
</port>
</input>
<output>
<port id="2" precision="FP32">
<dim>1</dim>
<dim>32</dim>
<dim>60</dim>
<dim>60</dim>
</port>
</output>
</layer>
<layer id="11" name="Reshape_104" type="Const" version="opset1">
<data element_type="f32" shape="1, 32, 1, 1" offset="3492" size="128"/>
<output>
<port id="0" precision="FP32">
<dim>1</dim>
<dim>32</dim>
<dim>1</dim>
<dim>1</dim>
</port>
</output>
</layer>
<layer id="12" name="93" type="Add" version="opset1">
<data auto_broadcast="numpy"/>
<rt_info>
<attribute name="fused_names" version="0" value="93, Concat_103, Reshape_104"/>
</rt_info>
<input>
<port id="0" precision="FP32">
<dim>1</dim>
<dim>32</dim>
<dim>60</dim>
<dim>60</dim>
</port>
<port id="1" precision="FP32">
<dim>1</dim>
<dim>32</dim>
<dim>1</dim>
<dim>1</dim>
</port>
</input>
<output>
<port id="2" precision="FP32" names="93">
<dim>1</dim>
<dim>32</dim>
<dim>60</dim>
<dim>60</dim>
</port>
</output>
</layer>
<layer id="13" name="94" type="ReLU" version="opset1">
<rt_info>
<attribute name="fused_names" version="0" value="94"/>
</rt_info>
<input>
<port id="0" precision="FP32">
<dim>1</dim>
<dim>32</dim>
<dim>60</dim>
<dim>60</dim>
</port>
</input>
<output>
<port id="1" precision="FP32" names="94">
<dim>1</dim>
<dim>32</dim>
<dim>60</dim>
<dim>60</dim>
</port>
</output>
</layer>
<layer id="14" name="Reshape_1333" type="Const" version="opset1">
<data element_type="f32" shape="1, 32, 1, 1" offset="3620" size="128"/>
<output>
<port id="0" precision="FP32">
<dim>1</dim>
<dim>32</dim>
<dim>1</dim>
<dim>1</dim>
</port>
</output>
</layer>
<layer id="15" name="Subtract_1336" type="Subtract" version="opset1">
<data auto_broadcast="numpy"/>
<rt_info>
<attribute name="fused_names" version="0" value="95"/>
</rt_info>
<input>
<port id="0" precision="FP32">
<dim>1</dim>
<dim>32</dim>
<dim>60</dim>
<dim>60</dim>
</port>
<port id="1" precision="FP32">
<dim>1</dim>
<dim>32</dim>
<dim>1</dim>
<dim>1</dim>
</port>
</input>
<output>
<port id="2" precision="FP32">
<dim>1</dim>
<dim>32</dim>
<dim>60</dim>
<dim>60</dim>
</port>
</output>
</layer>
<layer id="16" name="Reshape_1327" type="Const" version="opset1">
<data element_type="f32" shape="1, 32, 1, 1" offset="3748" size="128"/>
<output>
<port id="0" precision="FP32">
<dim>1</dim>
<dim>32</dim>
<dim>1</dim>
<dim>1</dim>
</port>
</output>
</layer>
<layer id="17" name="Multiply_1337" type="Multiply" version="opset1">
<data auto_broadcast="numpy"/>
<rt_info>
<attribute name="fused_names" version="0" value="95"/>
</rt_info>
<input>
<port id="0" precision="FP32">
<dim>1</dim>
<dim>32</dim>
<dim>60</dim>
<dim>60</dim>
</port>
<port id="1" precision="FP32">
<dim>1</dim>
<dim>32</dim>
<dim>1</dim>
<dim>1</dim>
</port>
</input>
<output>
<port id="2" precision="FP32">
<dim>1</dim>
<dim>32</dim>
<dim>60</dim>
<dim>60</dim>
</port>
</output>
</layer>
<layer id="18" name="Reshape_1330" type="Const" version="opset1">
<data element_type="f32" shape="1, 32, 1, 1" offset="3876" size="128"/>
<output>
<port id="0" precision="FP32">
<dim>1</dim>
<dim>32</dim>
<dim>1</dim>
<dim>1</dim>
</port>
</output>
</layer>
<layer id="19" name="95" type="Add" version="opset1">
<data auto_broadcast="numpy"/>
<rt_info>
<attribute name="fused_names" version="0" value="95"/>
</rt_info>
<input>
<port id="0" precision="FP32">
<dim>1</dim>
<dim>32</dim>
<dim>60</dim>
<dim>60</dim>
</port>
<port id="1" precision="FP32">
<dim>1</dim>
<dim>32</dim>
<dim>1</dim>
<dim>1</dim>
</port>
</input>
<output>
<port id="2" precision="FP32" names="95">
<dim>1</dim>
<dim>32</dim>
<dim>60</dim>
<dim>60</dim>
</port>
</output>
</layer>
<layer id="20" name="15" type="Const" version="opset1">
<data element_type="f32" shape="16, 32, 3, 3" offset="4004" size="18432"/>
<rt_info>
<attribute name="fused_names" version="0" value="15"/>
</rt_info>
<output>
<port id="0" precision="FP32" names="15">
<dim>16</dim>
<dim>32</dim>
<dim>3</dim>
<dim>3</dim>
</port>
</output>
</layer>
<layer id="21" name="Convolution_110" type="Convolution" version="opset1">
<data strides="2, 2" dilations="1, 1" pads_begin="1, 1" pads_end="1, 1" auto_pad="explicit"/>
<rt_info>
<attribute name="fused_names" version="0" value="Convolution_110"/>
</rt_info>
<input>
<port id="0" precision="FP32">
<dim>1</dim>
<dim>32</dim>
<dim>60</dim>
<dim>60</dim>
</port>
<port id="1" precision="FP32">
<dim>16</dim>
<dim>32</dim>
<dim>3</dim>
<dim>3</dim>
</port>
</input>
<output>
<port id="2" precision="FP32">
<dim>1</dim>
<dim>16</dim>
<dim>30</dim>
<dim>30</dim>
</port>
</output>
</layer>
<layer id="22" name="Reshape_121" type="Const" version="opset1">
<data element_type="f32" shape="1, 16, 1, 1" offset="22436" size="64"/>
<output>
<port id="0" precision="FP32">
<dim>1</dim>
<dim>16</dim>
<dim>1</dim>
<dim>1</dim>
</port>
</output>
</layer>
<layer id="23" name="96" type="Add" version="opset1">
<data auto_broadcast="numpy"/>
<rt_info>
<attribute name="fused_names" version="0" value="96, Concat_120, Reshape_121"/>
</rt_info>
<input>
<port id="0" precision="FP32">
<dim>1</dim>
<dim>16</dim>
<dim>30</dim>
<dim>30</dim>
</port>
<port id="1" precision="FP32">
<dim>1</dim>
<dim>16</dim>
<dim>1</dim>
<dim>1</dim>
</port>
</input>
<output>
<port id="2" precision="FP32" names="96">
<dim>1</dim>
<dim>16</dim>
<dim>30</dim>
<dim>30</dim>
</port>
</output>
</layer>
<layer id="24" name="17" type="Const" version="opset1">
<data element_type="f32" shape="64, 16, 3, 3" offset="22500" size="36864"/>
<rt_info>
<attribute name="fused_names" version="0" value="17"/>
</rt_info>
<output>
<port id="0" precision="FP32" names="17">
<dim>64</dim>
<dim>16</dim>
<dim>3</dim>
<dim>3</dim>
</port>
</output>
</layer>
<layer id="25" name="Convolution_125" type="Convolution" version="opset1">
<data strides="1, 1" dilations="1, 1" pads_begin="1, 1" pads_end="1, 1" auto_pad="explicit"/>
<rt_info>
<attribute name="fused_names" version="0" value="Convolution_125"/>
</rt_info>
<input>
<port id="0" precision="FP32">
<dim>1</dim>
<dim>16</dim>
<dim>30</dim>
<dim>30</dim>
</port>
<port id="1" precision="FP32">
<dim>64</dim>
<dim>16</dim>
<dim>3</dim>
<dim>3</dim>
</port>
</input>
<output>
<port id="2" precision="FP32">
<dim>1</dim>
<dim>64</dim>
<dim>30</dim>
<dim>30</dim>
</port>
</output>
</layer>
<layer id="26" name="Reshape_136" type="Const" version="opset1">
<data element_type="f32" shape="1, 64, 1, 1" offset="59364" size="256"/>
<output>
<port id="0" precision="FP32">
<dim>1</dim>
<dim>64</dim>
<dim>1</dim>
<dim>1</dim>
</port>
</output>
</layer>
<layer id="27" name="97" type="Add" version="opset1">
<data auto_broadcast="numpy"/>
<rt_info>
<attribute name="fused_names" version="0" value="97, Concat_135, Reshape_136"/>
</rt_info>
<input>
<port id="0" precision="FP32">
<dim>1</dim>
<dim>64</dim>
<dim>30</dim>
<dim>30</dim>
</port>
<port id="1" precision="FP32">
<dim>1</dim>
<dim>64</dim>
<dim>1</dim>
<dim>1</dim>
</port>
</input>
<output>
<port id="2" precision="FP32" names="97">
<dim>1</dim>
<dim>64</dim>
<dim>30</dim>
<dim>30</dim>
</port>
</output>
</layer>
<layer id="28" name="98" type="ReLU" version="opset1">
<rt_info>
<attribute name="fused_names" version="0" value="98"/>
</rt_info>
<input>
<port id="0" precision="FP32">
<dim>1</dim>
<dim>64</dim>
<dim>30</dim>
<dim>30</dim>
</port>
</input>
<output>
<port id="1" precision="FP32" names="98">
<dim>1</dim>
<dim>64</dim>
<dim>30</dim>
<dim>30</dim>
</port>
</output>
</layer>
<layer id="29" name="Reshape_1356" type="Const" version="opset1">
<data element_type="f32" shape="1, 64, 1, 1" offset="59620" size="256"/>
<output>
<port id="0" precision="FP32">
<dim>1</dim>
<dim>64</dim>
<dim>1</dim>
<dim>1</dim>
</port>
</output>
</layer>
<layer id="30" name="Subtract_1359" type="Subtract" version="opset1">
<data auto_broadcast="numpy"/>
<rt_info>
<attribute name="fused_names" version="0" value="99"/>
</rt_info>
<input>
<port id="0" precision="FP32">
<dim>1</dim>
<dim>64</dim>
<dim>30</dim>
<dim>30</dim>
</port>
<port id="1" precision="FP32">
<dim>1</dim>
<dim>64</dim>
<dim>1</dim>
<dim>1</dim>
</port>
</input>
<output>
<port id="2" precision="FP32">
<dim>1</dim>
<dim>64</dim>
<dim>30</dim>
<dim>30</dim>
</port>
</output>
</layer>
<layer id="31" name="Reshape_1350" type="Const" version="opset1">
<data element_type="f32" shape="1, 64, 1, 1" offset="59876" size="256"/>
<output>
<port id="0" precision="FP32">
<dim>1</dim>
<dim>64</dim>
<dim>1</dim>
<dim>1</dim>
</port>
</output>
</layer>
<layer id="32" name="Multiply_1360" type="Multiply" version="opset1">
<data auto_broadcast="numpy"/>
<rt_info>
<attribute name="fused_names" version="0" value="99"/>
</rt_info>
<input>
<port id="0" precision="FP32">
<dim>1</dim>
<dim>64</dim>
<dim>30</dim>
<dim>30</dim>
</port>
<port id="1" precision="FP32">
<dim>1</dim>
<dim>64</dim>
<dim>1</dim>
<dim>1</dim>
</port>
</input>
<output>
<port id="2" precision="FP32">
<dim>1</dim>
<dim>64</dim>
<dim>30</dim>
<dim>30</dim>
</port>
</output>
</layer>
<layer id="33" name="Reshape_1353" type="Const" version="opset1">
<data element_type="f32" shape="1, 64, 1, 1" offset="60132" size="256"/>
<output>
<port id="0" precision="FP32">
<dim>1</dim>
<dim>64</dim>
<dim>1</dim>
<dim>1</dim>
</port>
</output>
</layer>
<layer id="34" name="99" type="Add" version="opset1">
<data auto_broadcast="numpy"/>
<rt_info>
<attribute name="fused_names" version="0" value="99"/>
</rt_info>
<input>
<port id="0" precision="FP32">
<dim>1</dim>
<dim>64</dim>
<dim>30</dim>
<dim>30</dim>
</port>
<port id="1" precision="FP32">
<dim>1</dim>
<dim>64</dim>
<dim>1</dim>
<dim>1</dim>
</port>
</input>
<output>
<port id="2" precision="FP32" names="99">
<dim>1</dim>
<dim>64</dim>
<dim>30</dim>
<dim>30</dim>
</port>
</output>
</layer>
<layer id="35" name="24" type="Const" version="opset1">
<data element_type="f32" shape="32, 64, 3, 3" offset="60388" size="73728"/>
<rt_info>
<attribute name="fused_names" version="0" value="24"/>
</rt_info>
<output>
<port id="0" precision="FP32" names="24">
<dim>32</dim>
<dim>64</dim>
<dim>3</dim>
<dim>3</dim>
</port>
</output>
</layer>
<layer id="36" name="Convolution_142" type="Convolution" version="opset1">
<data strides="2, 2" dilations="1, 1" pads_begin="1, 1" pads_end="1, 1" auto_pad="explicit"/>
<rt_info>
<attribute name="fused_names" version="0" value="Convolution_142"/>
</rt_info>
<input>
<port id="0" precision="FP32">
<dim>1</dim>
<dim>64</dim>
<dim>30</dim>
<dim>30</dim>
</port>
<port id="1" precision="FP32">
<dim>32</dim>
<dim>64</dim>
<dim>3</dim>
<dim>3</dim>
</port>
</input>
<output>
<port id="2" precision="FP32">
<dim>1</dim>
<dim>32</dim>
<dim>15</dim>
<dim>15</dim>
</port>
</output>
</layer>
<layer id="37" name="Reshape_153" type="Const" version="opset1">
<data element_type="f32" shape="1, 32, 1, 1" offset="134116" size="128"/>
<output>
<port id="0" precision="FP32">
<dim>1</dim>
<dim>32</dim>
<dim>1</dim>
<dim>1</dim>
</port>
</output>
</layer>
<layer id="38" name="100" type="Add" version="opset1">
<data auto_broadcast="numpy"/>
<rt_info>
<attribute name="fused_names" version="0" value="100, Concat_152, Reshape_153"/>
</rt_info>
<input>
<port id="0" precision="FP32">
<dim>1</dim>
<dim>32</dim>
<dim>15</dim>
<dim>15</dim>
</port>
<port id="1" precision="FP32">
<dim>1</dim>
<dim>32</dim>
<dim>1</dim>
<dim>1</dim>
</port>
</input>
<output>
<port id="2" precision="FP32" names="100">
<dim>1</dim>
<dim>32</dim>
<dim>15</dim>
<dim>15</dim>
</port>
</output>
</layer>
<layer id="39" name="Reshape_1379" type="Const" version="opset1">
<data element_type="f32" shape="1, 3, 1, 1" offset="134244" size="12"/>
<output>
<port id="0" precision="FP32">
<dim>1</dim>
<dim>3</dim>
<dim>1</dim>
<dim>1</dim>
</port>
</output>
</layer>
<layer id="40" name="Subtract_1382" type="Subtract" version="opset1">
<data auto_broadcast="numpy"/>
<rt_info>
<attribute name="fused_names" version="0" value="101"/>
</rt_info>
<input>
<port id="0" precision="FP32">
<dim>1</dim>
<dim>3</dim>
<dim>60</dim>
<dim>60</dim>
</port>
<port id="1" precision="FP32">
<dim>1</dim>
<dim>3</dim>
<dim>1</dim>
<dim>1</dim>
</port>
</input>
<output>
<port id="2" precision="FP32">
<dim>1</dim>
<dim>3</dim>
<dim>60</dim>
<dim>60</dim>
</port>
</output>
</layer>
<layer id="41" name="Reshape_1373" type="Const" version="opset1">
<data element_type="f32" shape="1, 3, 1, 1" offset="134256" size="12"/>
<output>
<port id="0" precision="FP32">
<dim>1</dim>
<dim>3</dim>
<dim>1</dim>
<dim>1</dim>
</port>
</output>
</layer>
<layer id="42" name="Multiply_1383" type="Multiply" version="opset1">
<data auto_broadcast="numpy"/>
<rt_info>
<attribute name="fused_names" version="0" value="101"/>
</rt_info>
<input>
<port id="0" precision="FP32">
<dim>1</dim>
<dim>3</dim>
<dim>60</dim>
<dim>60</dim>
</port>
<port id="1" precision="FP32">
<dim>1</dim>
<dim>3</dim>
<dim>1</dim>
<dim>1</dim>
</port>
</input>
<output>
<port id="2" precision="FP32">
<dim>1</dim>
<dim>3</dim>
<dim>60</dim>
<dim>60</dim>
</port>
</output>
</layer>
<layer id="43" name="Reshape_1376" type="Const" version="opset1">
<data element_type="f32" shape="1, 3, 1, 1" offset="134268" size="12"/>
<output>
<port id="0" precision="FP32">
<dim>1</dim>
<dim>3</dim>
<dim>1</dim>
<dim>1</dim>
</port>
</output>
</layer>
<layer id="44" name="101" type="Add" version="opset1">
<data auto_broadcast="numpy"/>
<rt_info>
<attribute name="fused_names" version="0" value="101"/>
</rt_info>
<input>
<port id="0" precision="FP32">
<dim>1</dim>
<dim>3</dim>
<dim>60</dim>
<dim>60</dim>
</port>
<port id="1" precision="FP32">
<dim>1</dim>
<dim>3</dim>
<dim>1</dim>
<dim>1</dim>
</port>
</input>
<output>
<port id="2" precision="FP32" names="101">
<dim>1</dim>
<dim>3</dim>
<dim>60</dim>
<dim>60</dim>
</port>
</output>
</layer>
<layer id="45" name="31" type="Const" version="opset1">
<data element_type="f32" shape="32, 3, 3, 3" offset="134280" size="3456"/>
<rt_info>
<attribute name="fused_names" version="0" value="31"/>
</rt_info>
<output>
<port id="0" precision="FP32" names="31">
<dim>32</dim>
<dim>3</dim>
<dim>3</dim>
<dim>3</dim>
</port>
</output>
</layer>
<layer id="46" name="Convolution_158" type="Convolution" version="opset1">
<data strides="1, 1" dilations="1, 1" pads_begin="1, 1" pads_end="1, 1" auto_pad="explicit"/>
<rt_info>
<attribute name="fused_names" version="0" value="Convolution_158"/>
</rt_info>
<input>
<port id="0" precision="FP32">
<dim>1</dim>
<dim>3</dim>
<dim>60</dim>
<dim>60</dim>
</port>
<port id="1" precision="FP32">
<dim>32</dim>
<dim>3</dim>
<dim>3</dim>
<dim>3</dim>
</port>
</input>
<output>
<port id="2" precision="FP32">
<dim>1</dim>
<dim>32</dim>
<dim>60</dim>
<dim>60</dim>
</port>
</output>
</layer>
<layer id="47" name="Reshape_169" type="Const" version="opset1">
<data element_type="f32" shape="1, 32, 1, 1" offset="137736" size="128"/>
<output>
<port id="0" precision="FP32">
<dim>1</dim>
<dim>32</dim>
<dim>1</dim>
<dim>1</dim>
</port>
</output>
</layer>
<layer id="48" name="102" type="Add" version="opset1">
<data auto_broadcast="numpy"/>
<rt_info>
<attribute name="fused_names" version="0" value="102, Concat_168, Reshape_169"/>
</rt_info>
<input>
<port id="0" precision="FP32">
<dim>1</dim>
<dim>32</dim>
<dim>60</dim>
<dim>60</dim>
</port>
<port id="1" precision="FP32">
<dim>1</dim>
<dim>32</dim>
<dim>1</dim>
<dim>1</dim>
</port>
</input>
<output>
<port id="2" precision="FP32" names="102">
<dim>1</dim>
<dim>32</dim>
<dim>60</dim>
<dim>60</dim>
</port>
</output>
</layer>
<layer id="49" name="103" type="ReLU" version="opset1">
<rt_info>
<attribute name="fused_names" version="0" value="103"/>
</rt_info>
<input>
<port id="0" precision="FP32">
<dim>1</dim>
<dim>32</dim>
<dim>60</dim>
<dim>60</dim>
</port>
</input>
<output>
<port id="1" precision="FP32" names="103">
<dim>1</dim>
<dim>32</dim>
<dim>60</dim>
<dim>60</dim>
</port>
</output>
</layer>
<layer id="50" name="Reshape_1402" type="Const" version="opset1">
<data element_type="f32" shape="1, 32, 1, 1" offset="137864" size="128"/>
<output>
<port id="0" precision="FP32">
<dim>1</dim>
<dim>32</dim>
<dim>1</dim>
<dim>1</dim>
</port>
</output>
</layer>
<layer id="51" name="Subtract_1405" type="Subtract" version="opset1">
<data auto_broadcast="numpy"/>
<rt_info>
<attribute name="fused_names" version="0" value="104"/>
</rt_info>
<input>
<port id="0" precision="FP32">
<dim>1</dim>
<dim>32</dim>
<dim>60</dim>
<dim>60</dim>
</port>
<port id="1" precision="FP32">
<dim>1</dim>
<dim>32</dim>
<dim>1</dim>
<dim>1</dim>
</port>
</input>
<output>
<port id="2" precision="FP32">
<dim>1</dim>
<dim>32</dim>
<dim>60</dim>
<dim>60</dim>
</port>
</output>
</layer>
<layer id="52" name="Reshape_1396" type="Const" version="opset1">
<data element_type="f32" shape="1, 32, 1, 1" offset="137992" size="128"/>
<output>
<port id="0" precision="FP32">
<dim>1</dim>
<dim>32</dim>
<dim>1</dim>
<dim>1</dim>
</port>
</output>
</layer>
<layer id="53" name="Multiply_1406" type="Multiply" version="opset1">
<data auto_broadcast="numpy"/>
<rt_info>
<attribute name="fused_names" version="0" value="104"/>
</rt_info>
<input>
<port id="0" precision="FP32">
<dim>1</dim>
<dim>32</dim>
<dim>60</dim>
<dim>60</dim>
</port>
<port id="1" precision="FP32">
<dim>1</dim>
<dim>32</dim>
<dim>1</dim>
<dim>1</dim>
</port>
</input>
<output>
<port id="2" precision="FP32">
<dim>1</dim>
<dim>32</dim>
<dim>60</dim>
<dim>60</dim>
</port>
</output>
</layer>
<layer id="54" name="Reshape_1399" type="Const" version="opset1">
<data element_type="f32" shape="1, 32, 1, 1" offset="138120" size="128"/>
<output>
<port id="0" precision="FP32">
<dim>1</dim>
<dim>32</dim>
<dim>1</dim>
<dim>1</dim>
</port>
</output>
</layer>
<layer id="55" name="104" type="Add" version="opset1">
<data auto_broadcast="numpy"/>
<rt_info>
<attribute name="fused_names" version="0" value="104"/>
</rt_info>
<input>
<port id="0" precision="FP32">
<dim>1</dim>
<dim>32</dim>
<dim>60</dim>
<dim>60</dim>
</port>
<port id="1" precision="FP32">
<dim>1</dim>
<dim>32</dim>
<dim>1</dim>
<dim>1</dim>
</port>
</input>
<output>
<port id="2" precision="FP32" names="104">
<dim>1</dim>
<dim>32</dim>
<dim>60</dim>
<dim>60</dim>
</port>
</output>
</layer>
<layer id="56" name="38" type="Const" version="opset1">
<data element_type="f32" shape="16, 32, 3, 3" offset="138248" size="18432"/>
<rt_info>
<attribute name="fused_names" version="0" value="38"/>
</rt_info>
<output>
<port id="0" precision="FP32" names="38">
<dim>16</dim>
<dim>32</dim>
<dim>3</dim>
<dim>3</dim>
</port>
</output>
</layer>
<layer id="57" name="Convolution_175" type="Convolution" version="opset1">
<data strides="2, 2" dilations="1, 1" pads_begin="1, 1" pads_end="1, 1" auto_pad="explicit"/>
<rt_info>
<attribute name="fused_names" version="0" value="Convolution_175"/>
</rt_info>
<input>
<port id="0" precision="FP32">
<dim>1</dim>
<dim>32</dim>
<dim>60</dim>
<dim>60</dim>
</port>
<port id="1" precision="FP32">
<dim>16</dim>
<dim>32</dim>
<dim>3</dim>
<dim>3</dim>
</port>
</input>
<output>
<port id="2" precision="FP32">
<dim>1</dim>
<dim>16</dim>
<dim>30</dim>
<dim>30</dim>
</port>
</output>
</layer>
<layer id="58" name="Reshape_186" type="Const" version="opset1">
<data element_type="f32" shape="1, 16, 1, 1" offset="156680" size="64"/>
<output>
<port id="0" precision="FP32">
<dim>1</dim>
<dim>16</dim>
<dim>1</dim>
<dim>1</dim>
</port>
</output>
</layer>
<layer id="59" name="105" type="Add" version="opset1">
<data auto_broadcast="numpy"/>
<rt_info>
<attribute name="fused_names" version="0" value="105, Concat_185, Reshape_186"/>
</rt_info>
<input>
<port id="0" precision="FP32">
<dim>1</dim>
<dim>16</dim>
<dim>30</dim>
<dim>30</dim>
</port>
<port id="1" precision="FP32">
<dim>1</dim>
<dim>16</dim>
<dim>1</dim>
<dim>1</dim>
</port>
</input>
<output>
<port id="2" precision="FP32" names="105">
<dim>1</dim>
<dim>16</dim>
<dim>30</dim>
<dim>30</dim>
</port>
</output>
</layer>
<layer id="60" name="40" type="Const" version="opset1">
<data element_type="f32" shape="64, 16, 3, 3" offset="156744" size="36864"/>
<rt_info>
<attribute name="fused_names" version="0" value="40"/>
</rt_info>
<output>
<port id="0" precision="FP32" names="40">
<dim>64</dim>
<dim>16</dim>
<dim>3</dim>
<dim>3</dim>
</port>
</output>
</layer>
<layer id="61" name="Convolution_190" type="Convolution" version="opset1">
<data strides="1, 1" dilations="1, 1" pads_begin="1, 1" pads_end="1, 1" auto_pad="explicit"/>
<rt_info>
<attribute name="fused_names" version="0" value="Convolution_190"/>
</rt_info>
<input>
<port id="0" precision="FP32">
<dim>1</dim>
<dim>16</dim>
<dim>30</dim>
<dim>30</dim>
</port>
<port id="1" precision="FP32">
<dim>64</dim>
<dim>16</dim>
<dim>3</dim>
<dim>3</dim>
</port>
</input>
<output>
<port id="2" precision="FP32">
<dim>1</dim>
<dim>64</dim>
<dim>30</dim>
<dim>30</dim>
</port>
</output>
</layer>
<layer id="62" name="Reshape_201" type="Const" version="opset1">
<data element_type="f32" shape="1, 64, 1, 1" offset="193608" size="256"/>
<output>
<port id="0" precision="FP32">
<dim>1</dim>
<dim>64</dim>
<dim>1</dim>
<dim>1</dim>
</port>
</output>
</layer>
<layer id="63" name="106" type="Add" version="opset1">
<data auto_broadcast="numpy"/>
<rt_info>
<attribute name="fused_names" version="0" value="106, Concat_200, Reshape_201"/>
</rt_info>
<input>
<port id="0" precision="FP32">
<dim>1</dim>
<dim>64</dim>
<dim>30</dim>
<dim>30</dim>
</port>
<port id="1" precision="FP32">
<dim>1</dim>
<dim>64</dim>
<dim>1</dim>
<dim>1</dim>
</port>
</input>
<output>
<port id="2" precision="FP32" names="106">
<dim>1</dim>
<dim>64</dim>
<dim>30</dim>
<dim>30</dim>
</port>
</output>
</layer>
<layer id="64" name="107" type="ReLU" version="opset1">
<rt_info>
<attribute name="fused_names" version="0" value="107"/>
</rt_info>
<input>
<port id="0" precision="FP32">
<dim>1</dim>
<dim>64</dim>
<dim>30</dim>
<dim>30</dim>
</port>
</input>
<output>
<port id="1" precision="FP32" names="107">
<dim>1</dim>
<dim>64</dim>
<dim>30</dim>
<dim>30</dim>
</port>
</output>
</layer>
<layer id="65" name="Reshape_1425" type="Const" version="opset1">
<data element_type="f32" shape="1, 64, 1, 1" offset="193864" size="256"/>
<output>
<port id="0" precision="FP32">
<dim>1</dim>
<dim>64</dim>
<dim>1</dim>
<dim>1</dim>
</port>
</output>
</layer>
<layer id="66" name="Subtract_1428" type="Subtract" version="opset1">
<data auto_broadcast="numpy"/>
<rt_info>
<attribute name="fused_names" version="0" value="108"/>
</rt_info>
<input>
<port id="0" precision="FP32">
<dim>1</dim>
<dim>64</dim>
<dim>30</dim>
<dim>30</dim>
</port>
<port id="1" precision="FP32">
<dim>1</dim>
<dim>64</dim>
<dim>1</dim>
<dim>1</dim>
</port>
</input>
<output>
<port id="2" precision="FP32">
<dim>1</dim>
<dim>64</dim>
<dim>30</dim>
<dim>30</dim>
</port>
</output>
</layer>
<layer id="67" name="Reshape_1419" type="Const" version="opset1">
<data element_type="f32" shape="1, 64, 1, 1" offset="194120" size="256"/>
<output>
<port id="0" precision="FP32">
<dim>1</dim>
<dim>64</dim>
<dim>1</dim>
<dim>1</dim>
</port>
</output>
</layer>
<layer id="68" name="Multiply_1429" type="Multiply" version="opset1">
<data auto_broadcast="numpy"/>
<rt_info>
<attribute name="fused_names" version="0" value="108"/>
</rt_info>
<input>
<port id="0" precision="FP32">
<dim>1</dim>
<dim>64</dim>
<dim>30</dim>
<dim>30</dim>
</port>
<port id="1" precision="FP32">
<dim>1</dim>
<dim>64</dim>
<dim>1</dim>
<dim>1</dim>
</port>
</input>
<output>
<port id="2" precision="FP32">
<dim>1</dim>
<dim>64</dim>
<dim>30</dim>
<dim>30</dim>
</port>
</output>
</layer>
<layer id="69" name="Reshape_1422" type="Const" version="opset1">
<data element_type="f32" shape="1, 64, 1, 1" offset="194376" size="256"/>
<output>
<port id="0" precision="FP32">
<dim>1</dim>
<dim>64</dim>
<dim>1</dim>
<dim>1</dim>
</port>
</output>
</layer>
<layer id="70" name="108" type="Add" version="opset1">
<data auto_broadcast="numpy"/>
<rt_info>
<attribute name="fused_names" version="0" value="108"/>
</rt_info>
<input>
<port id="0" precision="FP32">
<dim>1</dim>
<dim>64</dim>
<dim>30</dim>
<dim>30</dim>
</port>
<port id="1" precision="FP32">
<dim>1</dim>
<dim>64</dim>
<dim>1</dim>
<dim>1</dim>
</port>
</input>
<output>
<port id="2" precision="FP32" names="108">
<dim>1</dim>
<dim>64</dim>
<dim>30</dim>
<dim>30</dim>
</port>
</output>
</layer>
<layer id="71" name="47" type="Const" version="opset1">
<data element_type="f32" shape="32, 64, 3, 3" offset="194632" size="73728"/>
<rt_info>
<attribute name="fused_names" version="0" value="47"/>
</rt_info>
<output>
<port id="0" precision="FP32" names="47">
<dim>32</dim>
<dim>64</dim>
<dim>3</dim>
<dim>3</dim>
</port>
</output>
</layer>
<layer id="72" name="Convolution_207" type="Convolution" version="opset1">
<data strides="2, 2" dilations="1, 1" pads_begin="1, 1" pads_end="1, 1" auto_pad="explicit"/>
<rt_info>
<attribute name="fused_names" version="0" value="Convolution_207"/>
</rt_info>
<input>
<port id="0" precision="FP32">
<dim>1</dim>
<dim>64</dim>
<dim>30</dim>
<dim>30</dim>
</port>
<port id="1" precision="FP32">
<dim>32</dim>
<dim>64</dim>
<dim>3</dim>
<dim>3</dim>
</port>
</input>
<output>
<port id="2" precision="FP32">
<dim>1</dim>
<dim>32</dim>
<dim>15</dim>
<dim>15</dim>
</port>
</output>
</layer>
<layer id="73" name="Reshape_218" type="Const" version="opset1">
<data element_type="f32" shape="1, 32, 1, 1" offset="268360" size="128"/>
<output>
<port id="0" precision="FP32">
<dim>1</dim>
<dim>32</dim>
<dim>1</dim>
<dim>1</dim>
</port>
</output>
</layer>
<layer id="74" name="109" type="Add" version="opset1">
<data auto_broadcast="numpy"/>
<rt_info>
<attribute name="fused_names" version="0" value="109, Concat_217, Reshape_218"/>
</rt_info>
<input>
<port id="0" precision="FP32">
<dim>1</dim>
<dim>32</dim>
<dim>15</dim>
<dim>15</dim>
</port>
<port id="1" precision="FP32">
<dim>1</dim>
<dim>32</dim>
<dim>1</dim>
<dim>1</dim>
</port>
</input>
<output>
<port id="2" precision="FP32" names="109">
<dim>1</dim>
<dim>32</dim>
<dim>15</dim>
<dim>15</dim>
</port>
</output>
</layer>
<layer id="75" name="110" type="Concat" version="opset1">
<data axis="1"/>
<rt_info>
<attribute name="fused_names" version="0" value="110"/>
</rt_info>
<input>
<port id="0" precision="FP32">
<dim>1</dim>
<dim>32</dim>
<dim>15</dim>
<dim>15</dim>
</port>
<port id="1" precision="FP32">
<dim>1</dim>
<dim>32</dim>
<dim>15</dim>
<dim>15</dim>
</port>
</input>
<output>
<port id="2" precision="FP32" names="110">
<dim>1</dim>
<dim>64</dim>
<dim>15</dim>
<dim>15</dim>
</port>
</output>
</layer>
<layer id="76" name="49" type="Const" version="opset1">
<data element_type="f32" shape="128, 64, 3, 3" offset="268488" size="294912"/>
<rt_info>
<attribute name="fused_names" version="0" value="49"/>
</rt_info>
<output>
<port id="0" precision="FP32" names="49">
<dim>128</dim>
<dim>64</dim>
<dim>3</dim>
<dim>3</dim>
</port>
</output>
</layer>
<layer id="77" name="Convolution_223" type="Convolution" version="opset1">
<data strides="1, 1" dilations="1, 1" pads_begin="1, 1" pads_end="1, 1" auto_pad="explicit"/>
<rt_info>
<attribute name="fused_names" version="0" value="Convolution_223"/>
</rt_info>
<input>
<port id="0" precision="FP32">
<dim>1</dim>
<dim>64</dim>
<dim>15</dim>
<dim>15</dim>
</port>
<port id="1" precision="FP32">
<dim>128</dim>
<dim>64</dim>
<dim>3</dim>
<dim>3</dim>
</port>
</input>
<output>
<port id="2" precision="FP32">
<dim>1</dim>
<dim>128</dim>
<dim>15</dim>
<dim>15</dim>
</port>
</output>
</layer>
<layer id="78" name="Reshape_234" type="Const" version="opset1">
<data element_type="f32" shape="1, 128, 1, 1" offset="563400" size="512"/>
<output>
<port id="0" precision="FP32">
<dim>1</dim>
<dim>128</dim>
<dim>1</dim>
<dim>1</dim>
</port>
</output>
</layer>
<layer id="79" name="111" type="Add" version="opset1">
<data auto_broadcast="numpy"/>
<rt_info>
<attribute name="fused_names" version="0" value="111, Concat_233, Reshape_234"/>
</rt_info>
<input>
<port id="0" precision="FP32">
<dim>1</dim>
<dim>128</dim>
<dim>15</dim>
<dim>15</dim>
</port>
<port id="1" precision="FP32">
<dim>1</dim>
<dim>128</dim>
<dim>1</dim>
<dim>1</dim>
</port>
</input>
<output>
<port id="2" precision="FP32" names="111">
<dim>1</dim>
<dim>128</dim>
<dim>15</dim>
<dim>15</dim>
</port>
</output>
</layer>
<layer id="80" name="112" type="ReLU" version="opset1">
<rt_info>
<attribute name="fused_names" version="0" value="112"/>
</rt_info>
<input>
<port id="0" precision="FP32">
<dim>1</dim>
<dim>128</dim>
<dim>15</dim>
<dim>15</dim>
</port>
</input>
<output>
<port id="1" precision="FP32" names="112">
<dim>1</dim>
<dim>128</dim>
<dim>15</dim>
<dim>15</dim>
</port>
</output>
</layer>
<layer id="81" name="Reshape_1448" type="Const" version="opset1">
<data element_type="f32" shape="1, 128, 1, 1" offset="563912" size="512"/>
<output>
<port id="0" precision="FP32">
<dim>1</dim>
<dim>128</dim>
<dim>1</dim>
<dim>1</dim>
</port>
</output>
</layer>
<layer id="82" name="Subtract_1451" type="Subtract" version="opset1">
<data auto_broadcast="numpy"/>
<rt_info>
<attribute name="fused_names" version="0" value="113"/>
</rt_info>
<input>
<port id="0" precision="FP32">
<dim>1</dim>
<dim>128</dim>
<dim>15</dim>
<dim>15</dim>
</port>
<port id="1" precision="FP32">
<dim>1</dim>
<dim>128</dim>
<dim>1</dim>
<dim>1</dim>
</port>
</input>
<output>
<port id="2" precision="FP32">
<dim>1</dim>
<dim>128</dim>
<dim>15</dim>
<dim>15</dim>
</port>
</output>
</layer>
<layer id="83" name="Reshape_1442" type="Const" version="opset1">
<data element_type="f32" shape="1, 128, 1, 1" offset="564424" size="512"/>
<output>
<port id="0" precision="FP32">
<dim>1</dim>
<dim>128</dim>
<dim>1</dim>
<dim>1</dim>
</port>
</output>
</layer>
<layer id="84" name="Multiply_1452" type="Multiply" version="opset1">
<data auto_broadcast="numpy"/>
<rt_info>
<attribute name="fused_names" version="0" value="113"/>
</rt_info>
<input>
<port id="0" precision="FP32">
<dim>1</dim>
<dim>128</dim>
<dim>15</dim>
<dim>15</dim>
</port>
<port id="1" precision="FP32">
<dim>1</dim>
<dim>128</dim>
<dim>1</dim>
<dim>1</dim>
</port>
</input>
<output>
<port id="2" precision="FP32">
<dim>1</dim>
<dim>128</dim>
<dim>15</dim>
<dim>15</dim>
</port>
</output>
</layer>
<layer id="85" name="Reshape_1445" type="Const" version="opset1">
<data element_type="f32" shape="1, 128, 1, 1" offset="564936" size="512"/>
<output>
<port id="0" precision="FP32">
<dim>1</dim>
<dim>128</dim>
<dim>1</dim>
<dim>1</dim>
</port>
</output>
</layer>
<layer id="86" name="113" type="Add" version="opset1">
<data auto_broadcast="numpy"/>
<rt_info>
<attribute name="fused_names" version="0" value="113"/>
</rt_info>
<input>
<port id="0" precision="FP32">
<dim>1</dim>
<dim>128</dim>
<dim>15</dim>
<dim>15</dim>
</port>
<port id="1" precision="FP32">
<dim>1</dim>
<dim>128</dim>
<dim>1</dim>
<dim>1</dim>
</port>
</input>
<output>
<port id="2" precision="FP32" names="113">
<dim>1</dim>
<dim>128</dim>
<dim>15</dim>
<dim>15</dim>
</port>
</output>
</layer>
<layer id="87" name="56" type="Const" version="opset1">
<data element_type="f32" shape="64, 128, 3, 3" offset="565448" size="294912"/>
<rt_info>
<attribute name="fused_names" version="0" value="56"/>
</rt_info>
<output>
<port id="0" precision="FP32" names="56">
<dim>64</dim>
<dim>128</dim>
<dim>3</dim>
<dim>3</dim>
</port>
</output>
</layer>
<layer id="88" name="Convolution_240" type="Convolution" version="opset1">
<data strides="2, 2" dilations="1, 1" pads_begin="1, 1" pads_end="1, 1" auto_pad="explicit"/>
<rt_info>
<attribute name="fused_names" version="0" value="Convolution_240"/>
</rt_info>
<input>
<port id="0" precision="FP32">
<dim>1</dim>
<dim>128</dim>
<dim>15</dim>
<dim>15</dim>
</port>
<port id="1" precision="FP32">
<dim>64</dim>
<dim>128</dim>
<dim>3</dim>
<dim>3</dim>
</port>
</input>
<output>
<port id="2" precision="FP32">
<dim>1</dim>
<dim>64</dim>
<dim>8</dim>
<dim>8</dim>
</port>
</output>
</layer>
<layer id="89" name="Reshape_251" type="Const" version="opset1">
<data element_type="f32" shape="1, 64, 1, 1" offset="860360" size="256"/>
<output>
<port id="0" precision="FP32">
<dim>1</dim>
<dim>64</dim>
<dim>1</dim>
<dim>1</dim>
</port>
</output>
</layer>
<layer id="90" name="114" type="Add" version="opset1">
<data auto_broadcast="numpy"/>
<rt_info>
<attribute name="fused_names" version="0" value="114, Concat_250, Reshape_251"/>
</rt_info>
<input>
<port id="0" precision="FP32">
<dim>1</dim>
<dim>64</dim>
<dim>8</dim>
<dim>8</dim>
</port>
<port id="1" precision="FP32">
<dim>1</dim>
<dim>64</dim>
<dim>1</dim>
<dim>1</dim>
</port>
</input>
<output>
<port id="2" precision="FP32" names="114">
<dim>1</dim>
<dim>64</dim>
<dim>8</dim>
<dim>8</dim>
</port>
</output>
</layer>
<layer id="91" name="58" type="Const" version="opset1">
<data element_type="f32" shape="128, 64, 3, 3" offset="860616" size="294912"/>
<rt_info>
<attribute name="fused_names" version="0" value="58"/>
</rt_info>
<output>
<port id="0" precision="FP32" names="58">
<dim>128</dim>
<dim>64</dim>
<dim>3</dim>
<dim>3</dim>
</port>
</output>
</layer>
<layer id="92" name="Convolution_255" type="Convolution" version="opset1">
<data strides="1, 1" dilations="1, 1" pads_begin="1, 1" pads_end="1, 1" auto_pad="explicit"/>
<rt_info>
<attribute name="fused_names" version="0" value="Convolution_255"/>
</rt_info>
<input>
<port id="0" precision="FP32">
<dim>1</dim>
<dim>64</dim>
<dim>8</dim>
<dim>8</dim>
</port>
<port id="1" precision="FP32">
<dim>128</dim>
<dim>64</dim>
<dim>3</dim>
<dim>3</dim>
</port>
</input>
<output>
<port id="2" precision="FP32">
<dim>1</dim>
<dim>128</dim>
<dim>8</dim>
<dim>8</dim>
</port>
</output>
</layer>
<layer id="93" name="Reshape_266" type="Const" version="opset1">
<data element_type="f32" shape="1, 128, 1, 1" offset="1155528" size="512"/>
<output>
<port id="0" precision="FP32">
<dim>1</dim>
<dim>128</dim>
<dim>1</dim>
<dim>1</dim>
</port>
</output>
</layer>
<layer id="94" name="115" type="Add" version="opset1">
<data auto_broadcast="numpy"/>
<rt_info>
<attribute name="fused_names" version="0" value="115, Concat_265, Reshape_266"/>
</rt_info>
<input>
<port id="0" precision="FP32">
<dim>1</dim>
<dim>128</dim>
<dim>8</dim>
<dim>8</dim>
</port>
<port id="1" precision="FP32">
<dim>1</dim>
<dim>128</dim>
<dim>1</dim>
<dim>1</dim>
</port>
</input>
<output>
<port id="2" precision="FP32" names="115">
<dim>1</dim>
<dim>128</dim>
<dim>8</dim>
<dim>8</dim>
</port>
</output>
</layer>
<layer id="95" name="116" type="ReLU" version="opset1">
<rt_info>
<attribute name="fused_names" version="0" value="116"/>
</rt_info>
<input>
<port id="0" precision="FP32">
<dim>1</dim>
<dim>128</dim>
<dim>8</dim>
<dim>8</dim>
</port>
</input>
<output>
<port id="1" precision="FP32" names="116">
<dim>1</dim>
<dim>128</dim>
<dim>8</dim>
<dim>8</dim>
</port>
</output>
</layer>
<layer id="96" name="Reshape_1471" type="Const" version="opset1">
<data element_type="f32" shape="1, 128, 1, 1" offset="1156040" size="512"/>
<output>
<port id="0" precision="FP32">
<dim>1</dim>
<dim>128</dim>
<dim>1</dim>
<dim>1</dim>
</port>
</output>
</layer>
<layer id="97" name="Subtract_1474" type="Subtract" version="opset1">
<data auto_broadcast="numpy"/>
<rt_info>
<attribute name="fused_names" version="0" value="117"/>
</rt_info>
<input>
<port id="0" precision="FP32">
<dim>1</dim>
<dim>128</dim>
<dim>8</dim>
<dim>8</dim>
</port>
<port id="1" precision="FP32">
<dim>1</dim>
<dim>128</dim>
<dim>1</dim>
<dim>1</dim>
</port>
</input>
<output>
<port id="2" precision="FP32">
<dim>1</dim>
<dim>128</dim>
<dim>8</dim>
<dim>8</dim>
</port>
</output>
</layer>
<layer id="98" name="Reshape_1465" type="Const" version="opset1">
<data element_type="f32" shape="1, 128, 1, 1" offset="1156552" size="512"/>
<output>
<port id="0" precision="FP32">
<dim>1</dim>
<dim>128</dim>
<dim>1</dim>
<dim>1</dim>
</port>
</output>
</layer>
<layer id="99" name="Multiply_1475" type="Multiply" version="opset1">
<data auto_broadcast="numpy"/>
<rt_info>
<attribute name="fused_names" version="0" value="117"/>
</rt_info>
<input>
<port id="0" precision="FP32">
<dim>1</dim>
<dim>128</dim>
<dim>8</dim>
<dim>8</dim>
</port>
<port id="1" precision="FP32">
<dim>1</dim>
<dim>128</dim>
<dim>1</dim>
<dim>1</dim>
</port>
</input>
<output>
<port id="2" precision="FP32">
<dim>1</dim>
<dim>128</dim>
<dim>8</dim>
<dim>8</dim>
</port>
</output>
</layer>
<layer id="100" name="Reshape_1468" type="Const" version="opset1">
<data element_type="f32" shape="1, 128, 1, 1" offset="1157064" size="512"/>
<output>
<port id="0" precision="FP32">
<dim>1</dim>
<dim>128</dim>
<dim>1</dim>
<dim>1</dim>
</port>
</output>
</layer>
<layer id="101" name="117" type="Add" version="opset1">
<data auto_broadcast="numpy"/>
<rt_info>
<attribute name="fused_names" version="0" value="117"/>
</rt_info>
<input>
<port id="0" precision="FP32">
<dim>1</dim>
<dim>128</dim>
<dim>8</dim>
<dim>8</dim>
</port>
<port id="1" precision="FP32">
<dim>1</dim>
<dim>128</dim>
<dim>1</dim>
<dim>1</dim>
</port>
</input>
<output>
<port id="2" precision="FP32" names="117">
<dim>1</dim>
<dim>128</dim>
<dim>8</dim>
<dim>8</dim>
</port>
</output>
</layer>
<layer id="102" name="65" type="Const" version="opset1">
<data element_type="f32" shape="64, 128, 3, 3" offset="1157576" size="294912"/>
<rt_info>
<attribute name="fused_names" version="0" value="65"/>
</rt_info>
<output>
<port id="0" precision="FP32" names="65">
<dim>64</dim>
<dim>128</dim>
<dim>3</dim>
<dim>3</dim>
</port>
</output>
</layer>
<layer id="103" name="Convolution_272" type="Convolution" version="opset1">
<data strides="2, 2" dilations="1, 1" pads_begin="0, 0" pads_end="0, 0" auto_pad="explicit"/>
<rt_info>
<attribute name="fused_names" version="0" value="Convolution_272"/>
</rt_info>
<input>
<port id="0" precision="FP32">
<dim>1</dim>
<dim>128</dim>
<dim>8</dim>
<dim>8</dim>
</port>
<port id="1" precision="FP32">
<dim>64</dim>
<dim>128</dim>
<dim>3</dim>
<dim>3</dim>
</port>
</input>
<output>
<port id="2" precision="FP32">
<dim>1</dim>
<dim>64</dim>
<dim>3</dim>
<dim>3</dim>
</port>
</output>
</layer>
<layer id="104" name="Reshape_283" type="Const" version="opset1">
<data element_type="f32" shape="1, 64, 1, 1" offset="1452488" size="256"/>
<output>
<port id="0" precision="FP32">
<dim>1</dim>
<dim>64</dim>
<dim>1</dim>
<dim>1</dim>
</port>
</output>
</layer>
<layer id="105" name="118" type="Add" version="opset1">
<data auto_broadcast="numpy"/>
<rt_info>
<attribute name="fused_names" version="0" value="118, Concat_282, Reshape_283"/>
</rt_info>
<input>
<port id="0" precision="FP32">
<dim>1</dim>
<dim>64</dim>
<dim>3</dim>
<dim>3</dim>
</port>
<port id="1" precision="FP32">
<dim>1</dim>
<dim>64</dim>
<dim>1</dim>
<dim>1</dim>
</port>
</input>
<output>
<port id="2" precision="FP32" names="118">
<dim>1</dim>
<dim>64</dim>
<dim>3</dim>
<dim>3</dim>
</port>
</output>
</layer>
<layer id="106" name="67" type="Const" version="opset1">
<data element_type="f32" shape="256, 64, 3, 3" offset="1452744" size="589824"/>
<rt_info>
<attribute name="fused_names" version="0" value="67"/>
</rt_info>
<output>
<port id="0" precision="FP32" names="67">
<dim>256</dim>
<dim>64</dim>
<dim>3</dim>
<dim>3</dim>
</port>
</output>
</layer>
<layer id="107" name="Convolution_287" type="Convolution" version="opset1">
<data strides="1, 1" dilations="1, 1" pads_begin="1, 1" pads_end="1, 1" auto_pad="explicit"/>
<rt_info>
<attribute name="fused_names" version="0" value="Convolution_287"/>
</rt_info>
<input>
<port id="0" precision="FP32">
<dim>1</dim>
<dim>64</dim>
<dim>3</dim>
<dim>3</dim>
</port>
<port id="1" precision="FP32">
<dim>256</dim>
<dim>64</dim>
<dim>3</dim>
<dim>3</dim>
</port>
</input>
<output>
<port id="2" precision="FP32">
<dim>1</dim>
<dim>256</dim>
<dim>3</dim>
<dim>3</dim>
</port>
</output>
</layer>
<layer id="108" name="Reshape_298" type="Const" version="opset1">
<data element_type="f32" shape="1, 256, 1, 1" offset="2042568" size="1024"/>
<output>
<port id="0" precision="FP32">
<dim>1</dim>
<dim>256</dim>
<dim>1</dim>
<dim>1</dim>
</port>
</output>
</layer>
<layer id="109" name="119" type="Add" version="opset1">
<data auto_broadcast="numpy"/>
<rt_info>
<attribute name="fused_names" version="0" value="119, Concat_297, Reshape_298"/>
</rt_info>
<input>
<port id="0" precision="FP32">
<dim>1</dim>
<dim>256</dim>
<dim>3</dim>
<dim>3</dim>
</port>
<port id="1" precision="FP32">
<dim>1</dim>
<dim>256</dim>
<dim>1</dim>
<dim>1</dim>
</port>
</input>
<output>
<port id="2" precision="FP32" names="119">
<dim>1</dim>
<dim>256</dim>
<dim>3</dim>
<dim>3</dim>
</port>
</output>
</layer>
<layer id="110" name="120" type="ReLU" version="opset1">
<rt_info>
<attribute name="fused_names" version="0" value="120"/>
</rt_info>
<input>
<port id="0" precision="FP32">
<dim>1</dim>
<dim>256</dim>
<dim>3</dim>
<dim>3</dim>
</port>
</input>
<output>
<port id="1" precision="FP32" names="120">
<dim>1</dim>
<dim>256</dim>
<dim>3</dim>
<dim>3</dim>
</port>
</output>
</layer>
<layer id="111" name="Reshape_1494" type="Const" version="opset1">
<data element_type="f32" shape="1, 256, 1, 1" offset="2043592" size="1024"/>
<output>
<port id="0" precision="FP32">
<dim>1</dim>
<dim>256</dim>
<dim>1</dim>
<dim>1</dim>
</port>
</output>
</layer>
<layer id="112" name="Subtract_1497" type="Subtract" version="opset1">
<data auto_broadcast="numpy"/>
<rt_info>
<attribute name="fused_names" version="0" value="121"/>
</rt_info>
<input>
<port id="0" precision="FP32">
<dim>1</dim>
<dim>256</dim>
<dim>3</dim>
<dim>3</dim>
</port>
<port id="1" precision="FP32">
<dim>1</dim>
<dim>256</dim>
<dim>1</dim>
<dim>1</dim>
</port>
</input>
<output>
<port id="2" precision="FP32">
<dim>1</dim>
<dim>256</dim>
<dim>3</dim>
<dim>3</dim>
</port>
</output>
</layer>
<layer id="113" name="Reshape_1488" type="Const" version="opset1">
<data element_type="f32" shape="1, 256, 1, 1" offset="2044616" size="1024"/>
<output>
<port id="0" precision="FP32">
<dim>1</dim>
<dim>256</dim>
<dim>1</dim>
<dim>1</dim>
</port>
</output>
</layer>
<layer id="114" name="Multiply_1498" type="Multiply" version="opset1">
<data auto_broadcast="numpy"/>
<rt_info>
<attribute name="fused_names" version="0" value="121"/>
</rt_info>
<input>
<port id="0" precision="FP32">
<dim>1</dim>
<dim>256</dim>
<dim>3</dim>
<dim>3</dim>
</port>
<port id="1" precision="FP32">
<dim>1</dim>
<dim>256</dim>
<dim>1</dim>
<dim>1</dim>
</port>
</input>
<output>
<port id="2" precision="FP32">
<dim>1</dim>
<dim>256</dim>
<dim>3</dim>
<dim>3</dim>
</port>
</output>
</layer>
<layer id="115" name="Reshape_1491" type="Const" version="opset1">
<data element_type="f32" shape="1, 256, 1, 1" offset="2045640" size="1024"/>
<output>
<port id="0" precision="FP32">
<dim>1</dim>
<dim>256</dim>
<dim>1</dim>
<dim>1</dim>
</port>
</output>
</layer>
<layer id="116" name="121" type="Add" version="opset1">
<data auto_broadcast="numpy"/>
<rt_info>
<attribute name="fused_names" version="0" value="121"/>
</rt_info>
<input>
<port id="0" precision="FP32">
<dim>1</dim>
<dim>256</dim>
<dim>3</dim>
<dim>3</dim>
</port>
<port id="1" precision="FP32">
<dim>1</dim>
<dim>256</dim>
<dim>1</dim>
<dim>1</dim>
</port>
</input>
<output>
<port id="2" precision="FP32" names="121">
<dim>1</dim>
<dim>256</dim>
<dim>3</dim>
<dim>3</dim>
</port>
</output>
</layer>
<layer id="117" name="74" type="Const" version="opset1">
<data element_type="f32" shape="512, 256, 3, 3" offset="2046664" size="4718592"/>
<rt_info>
<attribute name="fused_names" version="0" value="74"/>
</rt_info>
<output>
<port id="0" precision="FP32" names="74">
<dim>512</dim>
<dim>256</dim>
<dim>3</dim>
<dim>3</dim>
</port>
</output>
</layer>
<layer id="118" name="Convolution_304" type="Convolution" version="opset1">
<data strides="1, 1" dilations="1, 1" pads_begin="0, 0" pads_end="0, 0" auto_pad="explicit"/>
<rt_info>
<attribute name="fused_names" version="0" value="Convolution_304"/>
</rt_info>
<input>
<port id="0" precision="FP32">
<dim>1</dim>
<dim>256</dim>
<dim>3</dim>
<dim>3</dim>
</port>
<port id="1" precision="FP32">
<dim>512</dim>
<dim>256</dim>
<dim>3</dim>
<dim>3</dim>
</port>
</input>
<output>
<port id="2" precision="FP32">
<dim>1</dim>
<dim>512</dim>
<dim>1</dim>
<dim>1</dim>
</port>
</output>
</layer>
<layer id="119" name="Reshape_315" type="Const" version="opset1">
<data element_type="f32" shape="1, 512, 1, 1" offset="6765256" size="2048"/>
<output>
<port id="0" precision="FP32">
<dim>1</dim>
<dim>512</dim>
<dim>1</dim>
<dim>1</dim>
</port>
</output>
</layer>
<layer id="120" name="122" type="Add" version="opset1">
<data auto_broadcast="numpy"/>
<rt_info>
<attribute name="fused_names" version="0" value="122, Concat_314, Reshape_315"/>
</rt_info>
<input>
<port id="0" precision="FP32">
<dim>1</dim>
<dim>512</dim>
<dim>1</dim>
<dim>1</dim>
</port>
<port id="1" precision="FP32">
<dim>1</dim>
<dim>512</dim>
<dim>1</dim>
<dim>1</dim>
</port>
</input>
<output>
<port id="2" precision="FP32" names="122">
<dim>1</dim>
<dim>512</dim>
<dim>1</dim>
<dim>1</dim>
</port>
</output>
</layer>
<layer id="121" name="129" type="Const" version="opset1">
<data element_type="i64" shape="2" offset="6767304" size="16"/>
<rt_info>
<attribute name="fused_names" version="0" value="128, 129"/>
</rt_info>
<output>
<port id="0" precision="I64">
<dim>2</dim>
</port>
</output>
</layer>
<layer id="122" name="130" type="Reshape" version="opset1">
<data special_zero="true"/>
<rt_info>
<attribute name="fused_names" version="0" value="130"/>
</rt_info>
<input>
<port id="0" precision="FP32">
<dim>1</dim>
<dim>512</dim>
<dim>1</dim>
<dim>1</dim>
</port>
<port id="1" precision="I64">
<dim>2</dim>
</port>
</input>
<output>
<port id="2" precision="FP32" names="130">
<dim>1</dim>
<dim>512</dim>
</port>
</output>
</layer>
<layer id="123" name="137" type="Const" version="opset1">
<data element_type="i64" shape="2" offset="6767304" size="16"/>
<rt_info>
<attribute name="fused_names" version="0" value="136, 137"/>
</rt_info>
<output>
<port id="0" precision="I64">
<dim>2</dim>
</port>
</output>
</layer>
<layer id="124" name="138" type="Reshape" version="opset1">
<data special_zero="true"/>
<rt_info>
<attribute name="fused_names" version="0" value="138"/>
</rt_info>
<input>
<port id="0" precision="FP32">
<dim>1</dim>
<dim>3</dim>
</port>
<port id="1" precision="I64">
<dim>2</dim>
</port>
</input>
<output>
<port id="2" precision="FP32" names="138">
<dim>1</dim>
<dim>3</dim>
</port>
</output>
</layer>
<layer id="125" name="139" type="Concat" version="opset1">
<data axis="1"/>
<rt_info>
<attribute name="fused_names" version="0" value="139"/>
</rt_info>
<input>
<port id="0" precision="FP32">
<dim>1</dim>
<dim>512</dim>
</port>
<port id="1" precision="FP32">
<dim>1</dim>
<dim>3</dim>
</port>
</input>
<output>
<port id="2" precision="FP32" names="139">
<dim>1</dim>
<dim>515</dim>
</port>
</output>
</layer>
<layer id="126" name="Constant_346" type="Const" version="opset1">
<data element_type="i64" shape="1" offset="6767320" size="8"/>
<rt_info>
<attribute name="fused_names" version="0" value="Constant_346"/>
</rt_info>
<output>
<port id="0" precision="I64">
<dim>1</dim>
</port>
</output>
</layer>
<layer id="127" name="140" type="Unsqueeze" version="opset1">
<rt_info>
<attribute name="fused_names" version="0" value="140"/>
</rt_info>
<input>
<port id="0" precision="FP32">
<dim>1</dim>
<dim>515</dim>
</port>
<port id="1" precision="I64">
<dim>1</dim>
</port>
</input>
<output>
<port id="2" precision="FP32" names="140">
<dim>1</dim>
<dim>515</dim>
<dim>1</dim>
</port>
</output>
</layer>
<layer id="128" name="Constant_348" type="Const" version="opset1">
<data element_type="i64" shape="1" offset="6767328" size="8"/>
<rt_info>
<attribute name="fused_names" version="0" value="Constant_348"/>
</rt_info>
<output>
<port id="0" precision="I64">
<dim>1</dim>
</port>
</output>
</layer>
<layer id="129" name="141" type="Unsqueeze" version="opset1">
<rt_info>
<attribute name="fused_names" version="0" value="141"/>
</rt_info>
<input>
<port id="0" precision="FP32">
<dim>1</dim>
<dim>515</dim>
<dim>1</dim>
</port>
<port id="1" precision="I64">
<dim>1</dim>
</port>
</input>
<output>
<port id="2" precision="FP32" names="141">
<dim>1</dim>
<dim>515</dim>
<dim>1</dim>
<dim>1</dim>
</port>
</output>
</layer>
<layer id="130" name="76" type="Const" version="opset1">
<data element_type="f32" shape="320, 515, 1, 1" offset="6767336" size="659200"/>
<rt_info>
<attribute name="fused_names" version="0" value="76"/>
</rt_info>
<output>
<port id="0" precision="FP32" names="76">
<dim>320</dim>
<dim>515</dim>
<dim>1</dim>
<dim>1</dim>
</port>
</output>
</layer>
<layer id="131" name="Convolution_350" type="Convolution" version="opset1">
<data strides="1, 1" dilations="1, 1" pads_begin="0, 0" pads_end="0, 0" auto_pad="explicit"/>
<rt_info>
<attribute name="fused_names" version="0" value="Convolution_350"/>
</rt_info>
<input>
<port id="0" precision="FP32">
<dim>1</dim>
<dim>515</dim>
<dim>1</dim>
<dim>1</dim>
</port>
<port id="1" precision="FP32">
<dim>320</dim>
<dim>515</dim>
<dim>1</dim>
<dim>1</dim>
</port>
</input>
<output>
<port id="2" precision="FP32">
<dim>1</dim>
<dim>320</dim>
<dim>1</dim>
<dim>1</dim>
</port>
</output>
</layer>
<layer id="132" name="Reshape_361" type="Const" version="opset1">
<data element_type="f32" shape="1, 320, 1, 1" offset="7426536" size="1280"/>
<output>
<port id="0" precision="FP32">
<dim>1</dim>
<dim>320</dim>
<dim>1</dim>
<dim>1</dim>
</port>
</output>
</layer>
<layer id="133" name="142" type="Add" version="opset1">
<data auto_broadcast="numpy"/>
<rt_info>
<attribute name="fused_names" version="0" value="142, Concat_360, Reshape_361"/>
</rt_info>
<input>
<port id="0" precision="FP32">
<dim>1</dim>
<dim>320</dim>
<dim>1</dim>
<dim>1</dim>
</port>
<port id="1" precision="FP32">
<dim>1</dim>
<dim>320</dim>
<dim>1</dim>
<dim>1</dim>
</port>
</input>
<output>
<port id="2" precision="FP32" names="142">
<dim>1</dim>
<dim>320</dim>
<dim>1</dim>
<dim>1</dim>
</port>
</output>
</layer>
<layer id="134" name="Reshape_1517" type="Const" version="opset1">
<data element_type="f32" shape="1, 320, 1, 1" offset="7427816" size="1280"/>
<output>
<port id="0" precision="FP32">
<dim>1</dim>
<dim>320</dim>
<dim>1</dim>
<dim>1</dim>
</port>
</output>
</layer>
<layer id="135" name="Subtract_1520" type="Subtract" version="opset1">
<data auto_broadcast="numpy"/>
<rt_info>
<attribute name="fused_names" version="0" value="143"/>
</rt_info>
<input>
<port id="0" precision="FP32">
<dim>1</dim>
<dim>320</dim>
<dim>1</dim>
<dim>1</dim>
</port>
<port id="1" precision="FP32">
<dim>1</dim>
<dim>320</dim>
<dim>1</dim>
<dim>1</dim>
</port>
</input>
<output>
<port id="2" precision="FP32">
<dim>1</dim>
<dim>320</dim>
<dim>1</dim>
<dim>1</dim>
</port>
</output>
</layer>
<layer id="136" name="Reshape_1511" type="Const" version="opset1">
<data element_type="f32" shape="1, 320, 1, 1" offset="7429096" size="1280"/>
<output>
<port id="0" precision="FP32">
<dim>1</dim>
<dim>320</dim>
<dim>1</dim>
<dim>1</dim>
</port>
</output>
</layer>
<layer id="137" name="Multiply_1521" type="Multiply" version="opset1">
<data auto_broadcast="numpy"/>
<rt_info>
<attribute name="fused_names" version="0" value="143"/>
</rt_info>
<input>
<port id="0" precision="FP32">
<dim>1</dim>
<dim>320</dim>
<dim>1</dim>
<dim>1</dim>
</port>
<port id="1" precision="FP32">
<dim>1</dim>
<dim>320</dim>
<dim>1</dim>
<dim>1</dim>
</port>
</input>
<output>
<port id="2" precision="FP32">
<dim>1</dim>
<dim>320</dim>
<dim>1</dim>
<dim>1</dim>
</port>
</output>
</layer>
<layer id="138" name="Reshape_1514" type="Const" version="opset1">
<data element_type="f32" shape="1, 320, 1, 1" offset="7430376" size="1280"/>
<output>
<port id="0" precision="FP32">
<dim>1</dim>
<dim>320</dim>
<dim>1</dim>
<dim>1</dim>
</port>
</output>
</layer>
<layer id="139" name="143" type="Add" version="opset1">
<data auto_broadcast="numpy"/>
<rt_info>
<attribute name="fused_names" version="0" value="143"/>
</rt_info>
<input>
<port id="0" precision="FP32">
<dim>1</dim>
<dim>320</dim>
<dim>1</dim>
<dim>1</dim>
</port>
<port id="1" precision="FP32">
<dim>1</dim>
<dim>320</dim>
<dim>1</dim>
<dim>1</dim>
</port>
</input>
<output>
<port id="2" precision="FP32" names="143">
<dim>1</dim>
<dim>320</dim>
<dim>1</dim>
<dim>1</dim>
</port>
</output>
</layer>
<layer id="140" name="144" type="ReLU" version="opset1">
<rt_info>
<attribute name="fused_names" version="0" value="144"/>
</rt_info>
<input>
<port id="0" precision="FP32">
<dim>1</dim>
<dim>320</dim>
<dim>1</dim>
<dim>1</dim>
</port>
</input>
<output>
<port id="1" precision="FP32" names="144">
<dim>1</dim>
<dim>320</dim>
<dim>1</dim>
<dim>1</dim>
</port>
</output>
</layer>
<layer id="141" name="83" type="Const" version="opset1">
<data element_type="f32" shape="80, 320, 1, 1" offset="7431656" size="102400"/>
<rt_info>
<attribute name="fused_names" version="0" value="83"/>
</rt_info>
<output>
<port id="0" precision="FP32" names="83">
<dim>80</dim>
<dim>320</dim>
<dim>1</dim>
<dim>1</dim>
</port>
</output>
</layer>
<layer id="142" name="Convolution_367" type="Convolution" version="opset1">
<data strides="1, 1" dilations="1, 1" pads_begin="0, 0" pads_end="0, 0" auto_pad="explicit"/>
<rt_info>
<attribute name="fused_names" version="0" value="Convolution_367"/>
</rt_info>
<input>
<port id="0" precision="FP32">
<dim>1</dim>
<dim>320</dim>
<dim>1</dim>
<dim>1</dim>
</port>
<port id="1" precision="FP32">
<dim>80</dim>
<dim>320</dim>
<dim>1</dim>
<dim>1</dim>
</port>
</input>
<output>
<port id="2" precision="FP32">
<dim>1</dim>
<dim>80</dim>
<dim>1</dim>
<dim>1</dim>
</port>
</output>
</layer>
<layer id="143" name="Reshape_378" type="Const" version="opset1">
<data element_type="f32" shape="1, 80, 1, 1" offset="7534056" size="320"/>
<output>
<port id="0" precision="FP32">
<dim>1</dim>
<dim>80</dim>
<dim>1</dim>
<dim>1</dim>
</port>
</output>
</layer>
<layer id="144" name="145" type="Add" version="opset1">
<data auto_broadcast="numpy"/>
<rt_info>
<attribute name="fused_names" version="0" value="145, Concat_377, Reshape_378"/>
</rt_info>
<input>
<port id="0" precision="FP32">
<dim>1</dim>
<dim>80</dim>
<dim>1</dim>
<dim>1</dim>
</port>
<port id="1" precision="FP32">
<dim>1</dim>
<dim>80</dim>
<dim>1</dim>
<dim>1</dim>
</port>
</input>
<output>
<port id="2" precision="FP32" names="145">
<dim>1</dim>
<dim>80</dim>
<dim>1</dim>
<dim>1</dim>
</port>
</output>
</layer>
<layer id="145" name="146" type="ReLU" version="opset1">
<rt_info>
<attribute name="fused_names" version="0" value="146"/>
</rt_info>
<input>
<port id="0" precision="FP32">
<dim>1</dim>
<dim>80</dim>
<dim>1</dim>
<dim>1</dim>
</port>
</input>
<output>
<port id="1" precision="FP32" names="146">
<dim>1</dim>
<dim>80</dim>
<dim>1</dim>
<dim>1</dim>
</port>
</output>
</layer>
<layer id="146" name="Reshape_1540" type="Const" version="opset1">
<data element_type="f32" shape="1, 80, 1, 1" offset="7534376" size="320"/>
<output>
<port id="0" precision="FP32">
<dim>1</dim>
<dim>80</dim>
<dim>1</dim>
<dim>1</dim>
</port>
</output>
</layer>
<layer id="147" name="Subtract_1543" type="Subtract" version="opset1">
<data auto_broadcast="numpy"/>
<rt_info>
<attribute name="fused_names" version="0" value="147"/>
</rt_info>
<input>
<port id="0" precision="FP32">
<dim>1</dim>
<dim>80</dim>
<dim>1</dim>
<dim>1</dim>
</port>
<port id="1" precision="FP32">
<dim>1</dim>
<dim>80</dim>
<dim>1</dim>
<dim>1</dim>
</port>
</input>
<output>
<port id="2" precision="FP32">
<dim>1</dim>
<dim>80</dim>
<dim>1</dim>
<dim>1</dim>
</port>
</output>
</layer>
<layer id="148" name="Reshape_1534" type="Const" version="opset1">
<data element_type="f32" shape="1, 80, 1, 1" offset="7534696" size="320"/>
<output>
<port id="0" precision="FP32">
<dim>1</dim>
<dim>80</dim>
<dim>1</dim>
<dim>1</dim>
</port>
</output>
</layer>
<layer id="149" name="Multiply_1544" type="Multiply" version="opset1">
<data auto_broadcast="numpy"/>
<rt_info>
<attribute name="fused_names" version="0" value="147"/>
</rt_info>
<input>
<port id="0" precision="FP32">
<dim>1</dim>
<dim>80</dim>
<dim>1</dim>
<dim>1</dim>
</port>
<port id="1" precision="FP32">
<dim>1</dim>
<dim>80</dim>
<dim>1</dim>
<dim>1</dim>
</port>
</input>
<output>
<port id="2" precision="FP32">
<dim>1</dim>
<dim>80</dim>
<dim>1</dim>
<dim>1</dim>
</port>
</output>
</layer>
<layer id="150" name="Reshape_1537" type="Const" version="opset1">
<data element_type="f32" shape="1, 80, 1, 1" offset="7535016" size="320"/>
<output>
<port id="0" precision="FP32">
<dim>1</dim>
<dim>80</dim>
<dim>1</dim>
<dim>1</dim>
</port>
</output>
</layer>
<layer id="151" name="147" type="Add" version="opset1">
<data auto_broadcast="numpy"/>
<rt_info>
<attribute name="fused_names" version="0" value="147"/>
</rt_info>
<input>
<port id="0" precision="FP32">
<dim>1</dim>
<dim>80</dim>
<dim>1</dim>
<dim>1</dim>
</port>
<port id="1" precision="FP32">
<dim>1</dim>
<dim>80</dim>
<dim>1</dim>
<dim>1</dim>
</port>
</input>
<output>
<port id="2" precision="FP32" names="147">
<dim>1</dim>
<dim>80</dim>
<dim>1</dim>
<dim>1</dim>
</port>
</output>
</layer>
<layer id="152" name="90" type="Const" version="opset1">
<data element_type="f32" shape="3, 80, 1, 1" offset="7535336" size="960"/>
<rt_info>
<attribute name="fused_names" version="0" value="90"/>
</rt_info>
<output>
<port id="0" precision="FP32" names="90">
<dim>3</dim>
<dim>80</dim>
<dim>1</dim>
<dim>1</dim>
</port>
</output>
</layer>
<layer id="153" name="Convolution_384" type="Convolution" version="opset1">
<data strides="1, 1" dilations="1, 1" pads_begin="0, 0" pads_end="0, 0" auto_pad="explicit"/>
<rt_info>
<attribute name="fused_names" version="0" value="Convolution_384"/>
</rt_info>
<input>
<port id="0" precision="FP32">
<dim>1</dim>
<dim>80</dim>
<dim>1</dim>
<dim>1</dim>
</port>
<port id="1" precision="FP32">
<dim>3</dim>
<dim>80</dim>
<dim>1</dim>
<dim>1</dim>
</port>
</input>
<output>
<port id="2" precision="FP32">
<dim>1</dim>
<dim>3</dim>
<dim>1</dim>
<dim>1</dim>
</port>
</output>
</layer>
<layer id="154" name="Reshape_395" type="Const" version="opset1">
<data element_type="f32" shape="1, 3, 1, 1" offset="7536296" size="12"/>
<output>
<port id="0" precision="FP32">
<dim>1</dim>
<dim>3</dim>
<dim>1</dim>
<dim>1</dim>
</port>
</output>
</layer>
<layer id="155" name="148" type="Add" version="opset1">
<data auto_broadcast="numpy"/>
<rt_info>
<attribute name="fused_names" version="0" value="148, Concat_394, Reshape_395"/>
</rt_info>
<input>
<port id="0" precision="FP32">
<dim>1</dim>
<dim>3</dim>
<dim>1</dim>
<dim>1</dim>
</port>
<port id="1" precision="FP32">
<dim>1</dim>
<dim>3</dim>
<dim>1</dim>
<dim>1</dim>
</port>
</input>
<output>
<port id="2" precision="FP32" names="148">
<dim>1</dim>
<dim>3</dim>
<dim>1</dim>
<dim>1</dim>
</port>
</output>
</layer>
<layer id="156" name="Constant_1267" type="Const" version="opset1">
<data element_type="i64" shape="3" offset="7536308" size="24"/>
<rt_info>
<attribute name="fused_names" version="0" value="149"/>
</rt_info>
<output>
<port id="0" precision="I64">
<dim>3</dim>
</port>
</output>
</layer>
<layer id="157" name="Constant_1270" type="Const" version="opset1">
<data element_type="i64" shape="3" offset="7536332" size="24"/>
<rt_info>
<attribute name="fused_names" version="0" value="149"/>
</rt_info>
<output>
<port id="0" precision="I64">
<dim>3</dim>
</port>
</output>
</layer>
<layer id="158" name="Constant_1273" type="Const" version="opset1">
<data element_type="i64" shape="3" offset="7536356" size="24"/>
<rt_info>
<attribute name="fused_names" version="0" value="149"/>
</rt_info>
<output>
<port id="0" precision="I64">
<dim>3</dim>
</port>
</output>
</layer>
<layer id="159" name="149" type="StridedSlice" version="opset1">
<data begin_mask="1, 1, 0" end_mask="1, 1, 0" new_axis_mask="" shrink_axis_mask="" ellipsis_mask=""/>
<rt_info>
<attribute name="fused_names" version="0" value="149"/>
</rt_info>
<input>
<port id="0" precision="FP32">
<dim>1</dim>
<dim>3</dim>
<dim>1</dim>
<dim>1</dim>
</port>
<port id="1" precision="I64">
<dim>3</dim>
</port>
<port id="2" precision="I64">
<dim>3</dim>
</port>
<port id="3" precision="I64">
<dim>3</dim>
</port>
</input>
<output>
<port id="4" precision="FP32" names="149">
<dim>1</dim>
<dim>3</dim>
<dim>1</dim>
<dim>1</dim>
</port>
</output>
</layer>
<layer id="160" name="Constant_404" type="Const" version="opset1">
<data element_type="u64" shape="1" offset="6767320" size="8"/>
<rt_info>
<attribute name="fused_names" version="0" value="Constant_404"/>
</rt_info>
<output>
<port id="0" precision="U64">
<dim>1</dim>
</port>
</output>
</layer>
<layer id="161" name="150" type="Squeeze" version="opset1">
<rt_info>
<attribute name="fused_names" version="0" value="150"/>
</rt_info>
<input>
<port id="0" precision="FP32">
<dim>1</dim>
<dim>3</dim>
<dim>1</dim>
<dim>1</dim>
</port>
<port id="1" precision="U64">
<dim>1</dim>
</port>
</input>
<output>
<port id="2" precision="FP32" names="150">
<dim>1</dim>
<dim>3</dim>
<dim>1</dim>
</port>
</output>
</layer>
<layer id="162" name="Constant_1279" type="Const" version="opset1">
<data element_type="i64" shape="3" offset="7536308" size="24"/>
<rt_info>
<attribute name="fused_names" version="0" value="151"/>
</rt_info>
<output>
<port id="0" precision="I64">
<dim>3</dim>
</port>
</output>
</layer>
<layer id="163" name="Constant_1282" type="Const" version="opset1">
<data element_type="i64" shape="3" offset="7536332" size="24"/>
<rt_info>
<attribute name="fused_names" version="0" value="151"/>
</rt_info>
<output>
<port id="0" precision="I64">
<dim>3</dim>
</port>
</output>
</layer>
<layer id="164" name="Constant_1285" type="Const" version="opset1">
<data element_type="i64" shape="3" offset="7536356" size="24"/>
<rt_info>
<attribute name="fused_names" version="0" value="151"/>
</rt_info>
<output>
<port id="0" precision="I64">
<dim>3</dim>
</port>
</output>
</layer>
<layer id="165" name="151" type="StridedSlice" version="opset1">
<data begin_mask="1, 1, 0" end_mask="1, 1, 0" new_axis_mask="" shrink_axis_mask="" ellipsis_mask=""/>
<rt_info>
<attribute name="fused_names" version="0" value="151"/>
</rt_info>
<input>
<port id="0" precision="FP32">
<dim>1</dim>
<dim>3</dim>
<dim>1</dim>
</port>
<port id="1" precision="I64">
<dim>3</dim>
</port>
<port id="2" precision="I64">
<dim>3</dim>
</port>
<port id="3" precision="I64">
<dim>3</dim>
</port>
</input>
<output>
<port id="4" precision="FP32" names="151">
<dim>1</dim>
<dim>3</dim>
<dim>1</dim>
</port>
</output>
</layer>
<layer id="166" name="Constant_411" type="Const" version="opset1">
<data element_type="u64" shape="1" offset="6767320" size="8"/>
<rt_info>
<attribute name="fused_names" version="0" value="Constant_411"/>
</rt_info>
<output>
<port id="0" precision="U64">
<dim>1</dim>
</port>
</output>
</layer>
<layer id="167" name="gaze_vector" type="Squeeze" version="opset1">
<rt_info>
<attribute name="fused_names" version="0" value="gaze_vector"/>
</rt_info>
<input>
<port id="0" precision="FP32">
<dim>1</dim>
<dim>3</dim>
<dim>1</dim>
</port>
<port id="1" precision="U64">
<dim>1</dim>
</port>
</input>
<output>
<port id="2" precision="FP32" names="gaze_vector">
<dim>1</dim>
<dim>3</dim>
</port>
</output>
</layer>
<layer id="168" name="gaze_vector/sink_port_0" type="Result" version="opset1">
<rt_info>
<attribute name="fused_names" version="0" value="gaze_vector/sink_port_0"/>
</rt_info>
<input>
<port id="0" precision="FP32">
<dim>1</dim>
<dim>3</dim>
</port>
</input>
</layer>
</layers>
<edges>
<edge from-layer="0" from-port="0" to-layer="124" to-port="0"/>
<edge from-layer="1" from-port="0" to-layer="40" to-port="0"/>
<edge from-layer="2" from-port="0" to-layer="4" to-port="0"/>
<edge from-layer="3" from-port="0" to-layer="4" to-port="1"/>
<edge from-layer="4" from-port="2" to-layer="6" to-port="0"/>
<edge from-layer="5" from-port="0" to-layer="6" to-port="1"/>
<edge from-layer="6" from-port="2" to-layer="8" to-port="0"/>
<edge from-layer="7" from-port="0" to-layer="8" to-port="1"/>
<edge from-layer="8" from-port="2" to-layer="10" to-port="0"/>
<edge from-layer="9" from-port="0" to-layer="10" to-port="1"/>
<edge from-layer="10" from-port="2" to-layer="12" to-port="0"/>
<edge from-layer="11" from-port="0" to-layer="12" to-port="1"/>
<edge from-layer="12" from-port="2" to-layer="13" to-port="0"/>
<edge from-layer="13" from-port="1" to-layer="15" to-port="0"/>
<edge from-layer="14" from-port="0" to-layer="15" to-port="1"/>
<edge from-layer="15" from-port="2" to-layer="17" to-port="0"/>
<edge from-layer="16" from-port="0" to-layer="17" to-port="1"/>
<edge from-layer="17" from-port="2" to-layer="19" to-port="0"/>
<edge from-layer="18" from-port="0" to-layer="19" to-port="1"/>
<edge from-layer="19" from-port="2" to-layer="21" to-port="0"/>
<edge from-layer="20" from-port="0" to-layer="21" to-port="1"/>
<edge from-layer="21" from-port="2" to-layer="23" to-port="0"/>
<edge from-layer="22" from-port="0" to-layer="23" to-port="1"/>
<edge from-layer="23" from-port="2" to-layer="25" to-port="0"/>
<edge from-layer="24" from-port="0" to-layer="25" to-port="1"/>
<edge from-layer="25" from-port="2" to-layer="27" to-port="0"/>
<edge from-layer="26" from-port="0" to-layer="27" to-port="1"/>
<edge from-layer="27" from-port="2" to-layer="28" to-port="0"/>
<edge from-layer="28" from-port="1" to-layer="30" to-port="0"/>
<edge from-layer="29" from-port="0" to-layer="30" to-port="1"/>
<edge from-layer="30" from-port="2" to-layer="32" to-port="0"/>
<edge from-layer="31" from-port="0" to-layer="32" to-port="1"/>
<edge from-layer="32" from-port="2" to-layer="34" to-port="0"/>
<edge from-layer="33" from-port="0" to-layer="34" to-port="1"/>
<edge from-layer="34" from-port="2" to-layer="36" to-port="0"/>
<edge from-layer="35" from-port="0" to-layer="36" to-port="1"/>
<edge from-layer="36" from-port="2" to-layer="38" to-port="0"/>
<edge from-layer="37" from-port="0" to-layer="38" to-port="1"/>
<edge from-layer="38" from-port="2" to-layer="75" to-port="0"/>
<edge from-layer="39" from-port="0" to-layer="40" to-port="1"/>
<edge from-layer="40" from-port="2" to-layer="42" to-port="0"/>
<edge from-layer="41" from-port="0" to-layer="42" to-port="1"/>
<edge from-layer="42" from-port="2" to-layer="44" to-port="0"/>
<edge from-layer="43" from-port="0" to-layer="44" to-port="1"/>
<edge from-layer="44" from-port="2" to-layer="46" to-port="0"/>
<edge from-layer="45" from-port="0" to-layer="46" to-port="1"/>
<edge from-layer="46" from-port="2" to-layer="48" to-port="0"/>
<edge from-layer="47" from-port="0" to-layer="48" to-port="1"/>
<edge from-layer="48" from-port="2" to-layer="49" to-port="0"/>
<edge from-layer="49" from-port="1" to-layer="51" to-port="0"/>
<edge from-layer="50" from-port="0" to-layer="51" to-port="1"/>
<edge from-layer="51" from-port="2" to-layer="53" to-port="0"/>
<edge from-layer="52" from-port="0" to-layer="53" to-port="1"/>
<edge from-layer="53" from-port="2" to-layer="55" to-port="0"/>
<edge from-layer="54" from-port="0" to-layer="55" to-port="1"/>
<edge from-layer="55" from-port="2" to-layer="57" to-port="0"/>
<edge from-layer="56" from-port="0" to-layer="57" to-port="1"/>
<edge from-layer="57" from-port="2" to-layer="59" to-port="0"/>
<edge from-layer="58" from-port="0" to-layer="59" to-port="1"/>
<edge from-layer="59" from-port="2" to-layer="61" to-port="0"/>
<edge from-layer="60" from-port="0" to-layer="61" to-port="1"/>
<edge from-layer="61" from-port="2" to-layer="63" to-port="0"/>
<edge from-layer="62" from-port="0" to-layer="63" to-port="1"/>
<edge from-layer="63" from-port="2" to-layer="64" to-port="0"/>
<edge from-layer="64" from-port="1" to-layer="66" to-port="0"/>
<edge from-layer="65" from-port="0" to-layer="66" to-port="1"/>
<edge from-layer="66" from-port="2" to-layer="68" to-port="0"/>
<edge from-layer="67" from-port="0" to-layer="68" to-port="1"/>
<edge from-layer="68" from-port="2" to-layer="70" to-port="0"/>
<edge from-layer="69" from-port="0" to-layer="70" to-port="1"/>
<edge from-layer="70" from-port="2" to-layer="72" to-port="0"/>
<edge from-layer="71" from-port="0" to-layer="72" to-port="1"/>
<edge from-layer="72" from-port="2" to-layer="74" to-port="0"/>
<edge from-layer="73" from-port="0" to-layer="74" to-port="1"/>
<edge from-layer="74" from-port="2" to-layer="75" to-port="1"/>
<edge from-layer="75" from-port="2" to-layer="77" to-port="0"/>
<edge from-layer="76" from-port="0" to-layer="77" to-port="1"/>
<edge from-layer="77" from-port="2" to-layer="79" to-port="0"/>
<edge from-layer="78" from-port="0" to-layer="79" to-port="1"/>
<edge from-layer="79" from-port="2" to-layer="80" to-port="0"/>
<edge from-layer="80" from-port="1" to-layer="82" to-port="0"/>
<edge from-layer="81" from-port="0" to-layer="82" to-port="1"/>
<edge from-layer="82" from-port="2" to-layer="84" to-port="0"/>
<edge from-layer="83" from-port="0" to-layer="84" to-port="1"/>
<edge from-layer="84" from-port="2" to-layer="86" to-port="0"/>
<edge from-layer="85" from-port="0" to-layer="86" to-port="1"/>
<edge from-layer="86" from-port="2" to-layer="88" to-port="0"/>
<edge from-layer="87" from-port="0" to-layer="88" to-port="1"/>
<edge from-layer="88" from-port="2" to-layer="90" to-port="0"/>
<edge from-layer="89" from-port="0" to-layer="90" to-port="1"/>
<edge from-layer="90" from-port="2" to-layer="92" to-port="0"/>
<edge from-layer="91" from-port="0" to-layer="92" to-port="1"/>
<edge from-layer="92" from-port="2" to-layer="94" to-port="0"/>
<edge from-layer="93" from-port="0" to-layer="94" to-port="1"/>
<edge from-layer="94" from-port="2" to-layer="95" to-port="0"/>
<edge from-layer="95" from-port="1" to-layer="97" to-port="0"/>
<edge from-layer="96" from-port="0" to-layer="97" to-port="1"/>
<edge from-layer="97" from-port="2" to-layer="99" to-port="0"/>
<edge from-layer="98" from-port="0" to-layer="99" to-port="1"/>
<edge from-layer="99" from-port="2" to-layer="101" to-port="0"/>
<edge from-layer="100" from-port="0" to-layer="101" to-port="1"/>
<edge from-layer="101" from-port="2" to-layer="103" to-port="0"/>
<edge from-layer="102" from-port="0" to-layer="103" to-port="1"/>
<edge from-layer="103" from-port="2" to-layer="105" to-port="0"/>
<edge from-layer="104" from-port="0" to-layer="105" to-port="1"/>
<edge from-layer="105" from-port="2" to-layer="107" to-port="0"/>
<edge from-layer="106" from-port="0" to-layer="107" to-port="1"/>
<edge from-layer="107" from-port="2" to-layer="109" to-port="0"/>
<edge from-layer="108" from-port="0" to-layer="109" to-port="1"/>
<edge from-layer="109" from-port="2" to-layer="110" to-port="0"/>
<edge from-layer="110" from-port="1" to-layer="112" to-port="0"/>
<edge from-layer="111" from-port="0" to-layer="112" to-port="1"/>
<edge from-layer="112" from-port="2" to-layer="114" to-port="0"/>
<edge from-layer="113" from-port="0" to-layer="114" to-port="1"/>
<edge from-layer="114" from-port="2" to-layer="116" to-port="0"/>
<edge from-layer="115" from-port="0" to-layer="116" to-port="1"/>
<edge from-layer="116" from-port="2" to-layer="118" to-port="0"/>
<edge from-layer="117" from-port="0" to-layer="118" to-port="1"/>
<edge from-layer="118" from-port="2" to-layer="120" to-port="0"/>
<edge from-layer="119" from-port="0" to-layer="120" to-port="1"/>
<edge from-layer="120" from-port="2" to-layer="122" to-port="0"/>
<edge from-layer="121" from-port="0" to-layer="122" to-port="1"/>
<edge from-layer="122" from-port="2" to-layer="125" to-port="0"/>
<edge from-layer="123" from-port="0" to-layer="124" to-port="1"/>
<edge from-layer="124" from-port="2" to-layer="125" to-port="1"/>
<edge from-layer="125" from-port="2" to-layer="127" to-port="0"/>
<edge from-layer="126" from-port="0" to-layer="127" to-port="1"/>
<edge from-layer="127" from-port="2" to-layer="129" to-port="0"/>
<edge from-layer="128" from-port="0" to-layer="129" to-port="1"/>
<edge from-layer="129" from-port="2" to-layer="131" to-port="0"/>
<edge from-layer="130" from-port="0" to-layer="131" to-port="1"/>
<edge from-layer="131" from-port="2" to-layer="133" to-port="0"/>
<edge from-layer="132" from-port="0" to-layer="133" to-port="1"/>
<edge from-layer="133" from-port="2" to-layer="135" to-port="0"/>
<edge from-layer="134" from-port="0" to-layer="135" to-port="1"/>
<edge from-layer="135" from-port="2" to-layer="137" to-port="0"/>
<edge from-layer="136" from-port="0" to-layer="137" to-port="1"/>
<edge from-layer="137" from-port="2" to-layer="139" to-port="0"/>
<edge from-layer="138" from-port="0" to-layer="139" to-port="1"/>
<edge from-layer="139" from-port="2" to-layer="140" to-port="0"/>
<edge from-layer="140" from-port="1" to-layer="142" to-port="0"/>
<edge from-layer="141" from-port="0" to-layer="142" to-port="1"/>
<edge from-layer="142" from-port="2" to-layer="144" to-port="0"/>
<edge from-layer="143" from-port="0" to-layer="144" to-port="1"/>
<edge from-layer="144" from-port="2" to-layer="145" to-port="0"/>
<edge from-layer="145" from-port="1" to-layer="147" to-port="0"/>
<edge from-layer="146" from-port="0" to-layer="147" to-port="1"/>
<edge from-layer="147" from-port="2" to-layer="149" to-port="0"/>
<edge from-layer="148" from-port="0" to-layer="149" to-port="1"/>
<edge from-layer="149" from-port="2" to-layer="151" to-port="0"/>
<edge from-layer="150" from-port="0" to-layer="151" to-port="1"/>
<edge from-layer="151" from-port="2" to-layer="153" to-port="0"/>
<edge from-layer="152" from-port="0" to-layer="153" to-port="1"/>
<edge from-layer="153" from-port="2" to-layer="155" to-port="0"/>
<edge from-layer="154" from-port="0" to-layer="155" to-port="1"/>
<edge from-layer="155" from-port="2" to-layer="159" to-port="0"/>
<edge from-layer="156" from-port="0" to-layer="159" to-port="1"/>
<edge from-layer="157" from-port="0" to-layer="159" to-port="2"/>
<edge from-layer="158" from-port="0" to-layer="159" to-port="3"/>
<edge from-layer="159" from-port="4" to-layer="161" to-port="0"/>
<edge from-layer="160" from-port="0" to-layer="161" to-port="1"/>
<edge from-layer="161" from-port="2" to-layer="165" to-port="0"/>
<edge from-layer="162" from-port="0" to-layer="165" to-port="1"/>
<edge from-layer="163" from-port="0" to-layer="165" to-port="2"/>
<edge from-layer="164" from-port="0" to-layer="165" to-port="3"/>
<edge from-layer="165" from-port="4" to-layer="167" to-port="0"/>
<edge from-layer="166" from-port="0" to-layer="167" to-port="1"/>
<edge from-layer="167" from-port="2" to-layer="168" to-port="0"/>
</edges>
<meta_data>
<MO_version value="2022.1.0-6311-a90bb1ff017"/>
<cli_parameters>
<caffe_parser_path value="DIR"/>
<compress_fp16 value="False"/>
<data_type value="FP32"/>
<disable_nhwc_to_nchw value="False"/>
<disable_omitting_optional value="False"/>
<disable_resnet_optimization value="False"/>
<disable_weights_compression value="False"/>
<enable_concat_optimization value="False"/>
<enable_flattening_nested_params value="False"/>
<enable_ssd_gluoncv value="False"/>
<extensions value="DIR"/>
<framework value="onnx"/>
<freeze_placeholder_with_value value="{}"/>
<generate_deprecated_IR_V7 value="False"/>
<input value="left_eye_image,right_eye_image,head_pose_angles"/>
<input_model value="DIR/gaze-estimation-adas-0002.onnx"/>
<input_model_is_text value="False"/>
<input_shape value="[1,3,60,60],[1,3,60,60],[1,3]"/>
<k value="DIR/CustomLayersMapping.xml"/>
<keep_shape_ops value="True"/>
<layout value="left_eye_image(nchw),right_eye_image(nchw),head_pose_angles(nc)"/>
<layout_values value="{'left_eye_image': {'source_layout': 'nchw', 'target_layout': None, 'is_input': True}, 'right_eye_image': {'source_layout': 'nchw', 'target_layout': None, 'is_input': True}, 'head_pose_angles': {'source_layout': 'nc', 'target_layout': None, 'is_input': True}}"/>
<legacy_ir_generation value="False"/>
<legacy_mxnet_model value="False"/>
<log_level value="ERROR"/>
<mean_scale_values value="{}"/>
<mean_values value="()"/>
<model_name value="gaze-estimation-adas-0002"/>
<output value="['gaze_vector']"/>
<output_dir value="DIR"/>
<placeholder_data_types value="{}"/>
<placeholder_shapes value="{'left_eye_image': (1, 3, 60, 60), 'right_eye_image': (1, 3, 60, 60), 'head_pose_angles': (1, 3)}"/>
<progress value="False"/>
<remove_memory value="False"/>
<remove_output_softmax value="False"/>
<reverse_input_channels value="False"/>
<save_params_from_nd value="False"/>
<scale_values value="()"/>
<silent value="False"/>
<source_layout value="()"/>
<static_shape value="False"/>
<stream_output value="False"/>
<target_layout value="()"/>
<transform value=""/>
<use_legacy_frontend value="False"/>
<use_new_frontend value="False"/>
<unset unset_cli_parameters="batch, counts, disable_fusing, disable_gfusing, finegrain_fusing, input_checkpoint, input_meta_graph, input_proto, input_symbol, mean_file, mean_file_offsets, move_to_preprocess, nd_prefix_name, pretrained_model_name, saved_model_dir, saved_model_tags, scale, tensorboard_logdir, tensorflow_custom_layer_libraries, tensorflow_custom_operations_config_update, tensorflow_object_detection_api_pipeline_config, tensorflow_use_custom_operations_config, transformations_config"/>
</cli_parameters>
</meta_data>
</net>